models/DIA/MLP/ckpt.pth (torch_old, 1126 bytes, 3 tensors)

0.weight f4 [9, 7]
000000 ea 36 6b 3c 77 d7 92 3e 4d dd 97 3e 1a c3 9f 3e
       0.014356354 0.28680012 0.29661027 0.31203538
000010 7f 36 b2 3e 42 94 07 be bd e6 3b 3e ca d7 d6 3d
       0.34807202 -0.1324015 0.18349738 0.10490377
000020 d0 dc 81 bd 2f 60 ad be ad 35 80 bd a2 f6 50 3e
       -0.06340945 -0.33862445 -0.06260238 0.20406583
000030 26 74 9b 3d d0 89 7f 3e 6a dd 0b be 7c 4a 0e 3e
       0.07590513 0.24954915 -0.13658682 0.13895601
000040 ff f4 bb be 69 34 93 3e 8d 9f 7f be c6 4a 21 3c
       -0.36710355 0.28750923 -0.24963208 0.0098444875
000050 75 88 7e bd dd ed b4 3d db 80 63 3e 2b e4 91 be
       -0.062141854 0.08834431 0.22217123 -0.2849439
000060 4b 15 5d 3e c5 6f a1 3e a1 5f 62 be ce 3e 66 be
       0.21590154 0.31530586 -0.22106792 -0.22484896
000070 9d 78 18 be d7 bd c8 3d ca eb c1 bd 14 fe 57 3d
       -0.1488976 0.09801834 -0.09468801 0.052732542
000080 f1 74 23 bc d6 93 86 3d df 22 65 3e 36 ea bf 3e
       -0.0099766115 0.06571166 0.22376584 0.37483376
000090 bc 53 2c 3e 59 a8 59 3e d6 2f a6 be b1 0e 5c be
       0.16828817 0.21255626 -0.3245837 -0.2148998
0000a0 70 60 be bd 44 a4 b1 be a9 0d bf 3e 83 3b 89 be
       -0.09295738 -0.34695637 0.3731511 -0.26803216
0000b0 e4 00 25 3e ce 06 5d be f6 02 a0 be cc ce e1 bd
       0.16113621 -0.21584627 -0.3125226 -0.110257715
0000c0 86 e3 b8 bd b0 2c 9b be f4 a9 bb be 09 11 79 be
       -0.09027772 -0.3030753 -0.366531 -0.24322905
0000d0 f0 47 30 be 30 f0 b4 3c 3b 88 2e be 14 51 c0 be
       -0.17214942 0.022087187 -0.17044155 -0.37561858
0000e0 74 e1 82 3e f0 c1 cf 3c 4e 54 90 3e 3e 2a 81 be
       0.25562632 0.025361031 0.2818932 -0.2522754
0000f0 d9 fe a7 3e 12 f9 9b be 48 aa 4b bd
       0.3281162 -0.30463463 -0.04972294

0.bias f4 [9]
000000 d8 71 93 3e 1c 6a 9a be b4 14 9e 3e 6d 08 f0 bd
       0.28797793 -0.3015908 0.3087517 -0.11720357
000010 a1 bb bd be a7 2b af bd b7 31 29 3e dc 11 21 be
       -0.37057212 -0.08553248 0.16522871 -0.15729469
000020 a2 12 92 3e
       0.2852984

2.weight f4 [1, 9]
000000 2c 9e ca bd 22 83 17 bc 01 13 aa 3e 41 7f 30 be
       -0.0989345 -0.009247573 0.33217624 -0.17236044
000010 71 34 af bd 36 a6 87 be 42 21 93 be d3 ac 04 be
       -0.08554924 -0.26493996 -0.2873631 -0.12956552
000020 7e 1c 13 3e
       0.14366338
