models/DIA/MLP/ckpt.pth (torch_old, 1110 bytes, 3 tensors)

0.weight f4 [9, 7]
-0.066790715 -0.17813118 0.099463545 -0.09267278 -0.064083725 0.10995142 0.054998215 0.07518907
-0.0033695505 0.12414033 0.027380588 0.045361727 -0.33753878 -0.33694327 -0.12945825 0.2504504
0.13328171 -0.17127605 0.27089635 0.17867702 0.023899576 0.24267973 -0.3530757 0.11991358
0.045619205 0.34412715 0.24003908 -0.23373745 -0.34962308 0.08878732 -0.17696153 0.3329584
-0.18178046 -0.29215333 -0.11781706 0.26721546 -0.10090171 0.30453596 -0.22198881 0.06075684
0.14143951 -0.111909516 -0.28000244 0.13104445 -0.31178653 -0.21642494 -0.10431263 0.036303792
0.27177253 0.107162915 0.027070275 -0.1970643 -0.17661108 -0.023986088 -0.111803286 -0.06676745
0.2343323 0.08443716 -0.2642281 -0.28412524 0.25058475 -0.13954523 -0.37232265
00000000: 92c9 88bd 0568 36be 8bb3 cb3d 3acb bdbd
00000010: 543e 83bd 362e e13d cf45 613d bafc 993d
00000020: add3 5cbb 493d fe3d 414d e03c 38cd 393d
00000030: e2d1 acbe d483 acbe b490 04be 093b 803e
00000040: 007b 083e fd62 2fbe edb2 8a3e 1cf7 363e
00000050: 0bc9 c33c 0981 783e 57c6 b4be 4095 f53d
00000060: 34db 3a3d 6f31 b03e cecc 753e df58 6fbe
00000070: cc01 b3be 20d6 b53d 6735 35be 8679 aa3e
00000080: a824 3abe 1f95 95be 124a f1bd 77d0 883e
00000090: 8ea5 cebd 23ec 9b3e 0951 63be 2adc 783d
000000a0: 85d5 103e d130 e5bd 7b5c 8fbe 8430 063e
000000b0: 7ca2 9fbe 809e 5dbe dca1 d5bd 49b3 143d
000000c0: c525 8b3e 3b78 db3d 7bc2 dd3c 39cb 49be
000000d0: 89d9 34be 797e c4bc 1ff9 e4bd 5fbd 88bd
000000e0: cef4 6f3e 64ed ac3d e848 87be dd78 91be
000000f0: a54c 803e f2e4 0ebe 13a1 bebe

0.bias f4 [9]
-0.33308053 -0.35279477 0.30138758 -0.096201256 0.27160358 -0.05562967 -0.16171205 -0.2810146
-0.17498066
00000000: 8889 aabe 84a1 b4be 794f 9a3e 2a05 c5bd
00000010: a00f 8b3e f0db 63bd d897 25be 25e1 8fbe
00000020: 212e 33be

2.weight f4 [1, 9]
0.25400662 -0.32336473 -0.03134954 0.01841024 -0.11620743 -0.12540162 -0.24905363 0.21808305
-0.22609514
00000000: 280d 823e 1090 a5be 6068 00bd 12d1 963c
00000010: 29fe edbd 4869 00be ea07 7fbe 2a51 5f3e
00000020: 7c85 67be
