models/QQQ/MLP/ckpt.pth (torch_old, 1138 bytes, 3 tensors)

0.weight f4 [8, 9]
-0.23842846 0.008030008 -0.24560787 -0.060698364 -0.11015767 -0.009687792 0.06507934 0.2669165
0.06269653 -0.13022497 0.13997985 -0.20240417 0.32218823 0.12791589 -0.0642178 -0.26258323
-0.25293192 0.28045908 -0.07874719 0.08842393 0.05432292 0.32079425 0.20517789 0.28350413
-0.061585624 0.0021826026 -0.10196752 0.13368236 -0.16822116 0.3074342 0.04046842 -0.099660054
0.011952275 0.0141668515 0.29985762 -0.2780749 -0.13113984 0.21159418 -0.29704997 0.03339438
-0.2009371 0.100033425 0.0747146 -0.2053499 0.16418602 0.0375881 -0.010245598 -0.065471135
-0.13198721 0.17479777 -0.04834722 0.02991861 -0.21511059 -0.20597868 0.08707595 0.02329256
-0.1504973 0.13840838 0.3240719 0.31009358 0.3263431 -0.22982627 -0.33111003 -0.17888796
-0.13652804 -0.29292277 -0.004617821 -0.0058007175 -0.08254048 0.12069617 -0.3267531 0.24878478
00000000: 9726 74be 4b90 033c a180 7bbe d99e 78bd
00000010: 589a e1bd 8bb9 1ebc 5148 853d 48a9 883e
00000020: 0a67 803d b259 05be e156 0f3e 0a43 4fbe
00000030: dbf5 a43e 62fc 023e 9f84 83bd 4f71 86be
00000040: 4b80 81be 5598 8f3e 3546 a1bd 9b17 b53d
00000050: b681 5e3d 253f a43e 271a 523e 7427 913e
00000060: 3541 7cbd ff09 0f3b 59d4 d0bd 07e4 083e
00000070: 2b42 2cbe 0468 9d3e 37c2 253d 921a ccbd
00000080: 7ad3 433c 151c 683c f086 993e d55f 8ebe
00000090: 8649 06be 25ac 583e ef16 98be 8cc8 083d
000000a0: 75c2 4dbe 53de cc3d f803 993d 3f47 52be
000000b0: 6120 283e fbf5 193d 27dd 27bc bb15 86bd
000000c0: a827 07be 30fe 323e bc07 46bd df17 f53c
000000d0: f345 5cbe 13ec 52be e054 b23d 0ad0 be3c
000000e0: f71b 1abe edba 0d3e c1ec a53e 96c4 9e3e
000000f0: 7116 a73e 9457 6bbe 4187 a9be 682e 37be
00000100: 02ce 0bbe f9f9 95be 1751 97bb f213 bebb
00000110: fc0a a9bd 8e2f f73d 2f4c a7be 70c1 7e3e

0.bias f4 [8]
0.13886262 -0.23706797 0.038379617 -0.08872586 -0.25689906 -0.23394857 0.29761267 0.07979757
00000000: 0132 0e3e f2c1 72be f233 1d3d e7b5 b5bd
00000010: 4688 83be 3790 6fbe b060 983e e96c a33d

2.weight f4 [1, 8]
-0.083027974 0.015368701 -0.27667096 0.17530605 -0.036594193 0.048252456 0.3596534 -0.09927199
00000000: 920a aabd 01cd 7b3c d1a7 8dbe 6e83 333e
00000010: cbe3 15bd 5ea4 453d 7e24 b83e 1d4f cbbd
