models/QQQ/MLP/ckpt.pth (torch_old, 1154 bytes, 3 tensors)

0.weight f4 [8, 9]
000000 f5 e1 35 be 66 91 9f 3e a7 4a 1b 3d 30 de 94 3c
       -0.17761977 0.31165618 0.03791299 0.018172354
000010 e0 ee 30 be ec d9 18 be 0a 2c 9c be 74 7d b5 3d
       -0.17278624 -0.1492688 -0.3050235 0.08861819
000020 83 36 d9 bd 88 85 08 be 19 42 85 3e a1 c2 23 be
       -0.106061004 -0.13332188 0.2602699 -0.15992214
000030 60 07 9c 3e db bf c6 3d b9 a8 08 3e 0d 05 d0 bc
       0.30474377 0.09704562 0.13345613 -0.025393033
000040 d0 78 47 3e 76 55 79 3d ba e5 b8 3c 6b e0 8b be
       0.1947968 0.060872518 0.02257048 -0.27319655
000050 84 76 92 3e b1 d2 71 3e 3a 2b 2e 3e 40 69 e4 3d
       0.28606045 0.23615529 0.17008677 0.11152887
000060 64 1a e7 3d 0c 0d 6d 3e f4 2e 19 be c3 d5 56 3e
       0.112843305 0.23149508 -0.14959317 0.20979981
000070 35 9c 96 bd f5 d7 c0 bd 04 e0 1d be 56 1f 06 bd
       -0.07354013 -0.094161905 -0.15417486 -0.032744728
000080 09 7d 6b be 50 cd 83 bc 29 b2 a2 be 49 fb 5b be
       -0.22996916 -0.016089112 -0.3177655 -0.21482576
000090 26 96 7d be b1 2b 11 3e c7 ff 24 be fc 7c 95 3e
       -0.24764308 0.14176823 -0.16113196 0.29196918
0000a0 81 b7 eb 3d 4a 13 56 be 15 32 0c be 72 ce 4c bd
       0.1150961 -0.20905796 -0.1369098 -0.05000157
0000b0 20 fd 7f 3d e8 40 1d bd ad 0e bd 3d 80 f2 0e 3e
       0.06249726 -0.038391978 0.09231315 0.13959694
0000c0 38 d8 37 3e d0 e6 85 3d 3c 64 c5 3d dd ef 85 3e
       0.17953575 0.065381646 0.09638259 0.26159564
0000d0 a8 89 e9 bd e3 83 94 3e ba 87 a9 be e9 bf d4 3d
       -0.11403209 0.29006872 -0.33111364 0.103881665
0000e0 dd 00 f3 bd 8d 88 43 bd 05 4c bf bd b3 40 4e 3d
       -0.11865399 -0.047737647 -0.093406714 0.05035467
0000f0 cb f1 23 be 52 3a 60 be 79 ce 9f 3d a6 c3 89 be
       -0.16010205 -0.21897247 0.078030534 -0.2690708
000100 e5 93 68 3c be e4 80 3c 65 61 47 bd df cc 2f 3e
       0.014195417 0.015734073 -0.048676867 0.17167996
000110 fd 53 ef 3b 6b 67 96 3e f0 75 86 bc 8e c5 74 3e
       0.0073037134 0.29375777 -0.016413659 0.23903486

0.bias f4 [8]
000000 d0 fa 38 3e 15 bc 83 3e 5d ff a8 be cd d8 d1 bd
       0.18064427 0.25729433 -0.33007327 -0.102464296
000010 88 13 2c 3e 07 13 a7 be 35 88 54 be f5 69 99 3e
       0.16804326 -0.32631704 -0.20755084 0.2996365

2.weight f4 [1, 8]
000000 40 ac 68 3c 57 77 41 be 40 b9 4f 3e 0b 71 a1 be
       0.014201224 -0.18893181 0.20285511 -0.31531557
000010 da 33 25 3e c3 f6 81 3e ca a9 3f be f7 b4 84 3e
       0.16133061 0.25383577 -0.18717113 0.25919315
