models_norm/SPY/MLP/ckpt.pth (torch_old, 1002 bytes, 3 tensors)

0.weight f4 [6, 7]
0	0x3fa8ebe1	1.3196985
1	0xbf6c07b5	-0.9219926
2	0x4016a81e	2.354011
3	0xbecbf21c	-0.39833152
4	0x3f109082	0.564705
5	0xbf89dfb7	-1.0771397
6	0xbefd0767	-0.4941971
7	0xbef08a75	-0.46980634
8	0xbece3833	-0.40277252
9	0x3f9acdef	1.2094096
10	0xbf5c1077	-0.85962623
11	0x3e7f4889	0.24930014
12	0xbf98dd09	-1.1942455
13	0x3e855473	0.26040992
14	0x4016a098	2.3535519
15	0xbf286db4	-0.65792394
16	0x3fd2d09f	1.6469916
17	0xbe8ca0bc	-0.2746638
18	0x3ef57854	0.47943366
19	0xbf29deee	-0.6635579
20	0x3ef3ad62	0.47593218
21	0xbe1b7153	-0.15179949
22	0x3f944d61	1.1586114
23	0x3f3644ed	0.7119892
24	0xbe1d138e	-0.15339491
25	0xbf00d8cb	-0.503308
26	0x3e6947d8	0.22781312
27	0x3f9eedb9	1.2416297
28	0xbe9b8204	-0.30372632
29	0x3eb55687	0.35417578
30	0x3fe971f6	1.8237903
31	0xbf715a3d	-0.9427832
32	0xbe94de07	-0.29075643
33	0xbfa4908f	-1.2856616
34	0x3fa61f4f	1.2978305
35	0x3fdbaaac	1.716146
36	0xbf2f9bff	-0.68597406
37	0xbfb15aad	-1.3855797
38	0x3dea7891	0.114487775
39	0x3f628bf6	0.88494813
40	0x3f3dbbed	0.74114877
41	0xbd9787d1	-0.07398952

0.bias f4 [6]
0	0xbf83d259	-1.0298568
1	0xbf937099	-1.1518737
2	0xbf42f0ac	-0.76148486
3	0x4087ea1c	4.247328
4	0x3f65afef	0.8972158
5	0xbff0a8c3	-1.8801502

2.weight f4 [1, 6]
0	0xc02f852f	-2.742504
1	0x4001b665	2.0267575
2	0x40230405	2.5471203
3	0xc02131df	-2.518669
4	0xbfe1a8bc	-1.7629619
5	0xbfc0594d	-1.5027252
