models_norm/SPY/MLP/ckpt.pth (torch_old, 1002 bytes, 3 tensors)

0.weight f4 [6, 7]
-1.0240896 -0.62273526 0.2579861 1.4761857 -0.43315876 -1.435283 1.744164 -0.38313487
-0.6954357 -0.7307722 0.44854686 0.28816918 0.048976317 -0.853484 -1.1474708 -0.34758547
-1.0126009 -0.65161633 0.68317366 -0.8155348 1.5997146 -0.67862093 1.041798 -0.12855239
-0.006113021 0.42991963 -0.7615714 -0.112958804 0.21890232 0.42639175 0.5691935 -1.0227025
0.32497182 -0.004612999 -1.813362 -0.63945574 -1.1412902 0.30856153 -0.7705013 0.026787456
-1.4240854 0.6758525
00000000: 5e15 83bf 946b 1fbf c116 843e a7f3 bc3f
00000010: fcc6 ddbe 5ab7 b7bf c440 df3f 412a c4be
00000020: 1308 32bf e313 3bbf efa7 e53e e98a 933e
00000030: 649b 483d ed7d 5abf 53e0 92bf b9f6 b1be
00000040: e89c 81bf 54d0 26bf 78e4 2e3f e3c6 50bf
00000050: 73c3 cc3f 1aba 2dbf a359 853f 3da3 03be
00000060: bd4f c8bb 6d1e dc3e 58f6 42bf f256 e7bd
00000070: ee27 603e 0550 da3e aab6 113f eae7 82bf
00000080: b562 a63e a428 97bb 3f1c e8bf 5fb3 23bf
00000090: cc15 92bf c7fb 9d3e 933f 45bf 5e71 db3c
000000a0: 6e48 b6bf ab04 2d3f

0.bias f4 [6]
-1.3097076 -3.8131032 -0.886487 0.15889846 0.8904312 -1.3941703
00000000: 80a4 a7bf e209 74c0 d0f0 62bf 47b6 223e
00000010: 4df3 633f 2c74 b2bf

2.weight f4 [1, 6]
-2.0160966 3.463978 -1.4662706 1.440857 -2.6921208 1.8825536
00000000: ba07 01c0 d1b1 5d40 c1ae bbbf 016e b83f
00000010: b54b 2cc0 84f7 f03f
