models_norm/SPY/MLP/ckpt.pth (torch_old, 1018 bytes, 3 tensors)

0.weight f4 [6, 7]
000000 88 c2 c1 be 59 d4 0c be 4a f4 1e 3f 3a 6d 87 bf
       -0.37843728 -0.13752879 0.62091506 -1.0580208
000010 6a 76 dc 3c ca 72 84 bf 1f 3d 92 3e a5 4d 1b 3e
       0.026911933 -1.0347531 0.28562257 0.15166338
000020 4c 8b 92 bd 37 d7 1a bf 3a 79 8f 3f 90 3f 77 3d
       -0.07155475 -0.6048464 1.120887 0.060363352
000030 6e 45 cd be 68 86 c5 3f 23 e5 5a 3f a8 21 94 3f
       -0.40092033 1.5431643 0.85505885 1.1572771
000040 45 3a bc bf 4c 6f eb 3f 51 87 46 be 33 36 14 c0
       -1.4705282 1.839334 -0.19387557 -2.315808
000050 63 35 de 3f bc 0e 19 be f7 08 6d be 51 44 f7 3f
       1.7360042 -0.14947027 -0.23147951 1.9317724
000060 7c cd 99 bf 04 34 1e bf 8f 26 d4 be f9 bc 7f 3f
       -1.2015834 -0.6179812 -0.41435668 0.99897724
000070 20 42 59 3f e2 75 50 3f 1f 23 b9 3f 1a 3d 99 be
       0.84866524 0.81429875 1.4463843 -0.2992943
000080 97 5b ca bf 1d 37 37 3f e7 b5 4f 3f a3 43 db 3e
       -1.5809201 0.7156847 0.81136936 0.4282504
000090 74 10 32 3f e1 a1 a2 3f 17 02 7b be 07 be f8 be
       0.69556355 1.2705652 -0.24512516 -0.4858248
0000a0 7e 79 1b 3e 90 f7 a8 3f
       0.15183064 1.320055

0.bias f4 [6]
000000 89 86 50 bf 95 4f 19 3e 13 e9 4c 3f 9b 66 88 3e
       -0.81455284 0.14971764 0.80043143 0.26640782
000010 e3 86 ff 3f 7c f9 92 40
       1.9963039 4.5929546

2.weight f4 [1, 6]
000000 14 d7 0f 40 40 86 e6 3f fe 69 9d bf 04 a1 03 c0
       2.2475023 1.800972 -1.2297971 -2.0567026
000010 21 67 e5 3f 1e f4 34 c0
       1.7922097 -2.8273997
