models/QQQ/PSN/ckpt.pth (torch_old, 861 bytes, 2 tensors)

fc.weight f4 [8, 9]
0	0xbca5daf4	-0.020246007
1	0xbd90f03a	-0.070770696
2	0x3e7c6785	0.24648865
3	0xbea5f216	-0.3241126
4	0x3bfe8127	0.007766861
5	0xba88f09b	-0.0010447683
6	0x3ccbd98f	0.024884013
7	0x3e854a98	0.26033473
8	0xbe13ab44	-0.14420801
9	0x3e1f3e1a	0.15551034
10	0x3ddc300e	0.10751353
11	0x3b966b9b	0.0045904643
12	0x3e3ecc08	0.18632519
13	0xbe031e9c	-0.12804645
14	0x3df1a232	0.117985144
15	0x3ea2fb76	0.31832474
16	0x3c69b21f	0.014263659
17	0xbe8e4959	-0.27790335
18	0xbe5ba06c	-0.21447915
19	0x3df40c0e	0.11916362
20	0xbdedf566	-0.11619072
21	0xbea4f983	-0.32221612
22	0xbe603956	-0.21896872
23	0xbe0e4b74	-0.1389597
24	0x3d505453	0.050861668
25	0x3e59b221	0.21259357
26	0x3dc3e701	0.09565545
27	0xbde202dc	-0.11035702
28	0xbe0c3700	-0.13692856
29	0xbdf54a06	-0.119770095
30	0x3dba2036	0.09088175
31	0x3e8a3246	0.2699148
32	0x3da5c772	0.08094682
33	0xbb8c43d6	-0.0042805476
34	0xbb6cb6b1	-0.0036119635
35	0xbd4a50c4	-0.04939343
36	0x3ea6ea34	0.32600558
37	0x3d1b2e28	0.037885815
38	0x3e2d58c5	0.16928394
39	0xbe884ba2	-0.26620203
40	0xbe5976e4	-0.2123676
41	0x3dfe5b52	0.12419762
42	0x3e189e97	0.14904247
43	0xbe578181	-0.21045496
44	0xbdf8b5f5	-0.121440805
45	0xbe52ce62	-0.20586541
46	0xbe0ce530	-0.13759303
47	0xbd9cb8e6	-0.07652454
48	0xbe87020f	-0.26368758
49	0xbd9efc23	-0.07762935
50	0xbe1506cc	-0.14553374
51	0xbe57d31f	-0.2107663
52	0x3e8cabf0	0.27474928
53	0x3e489571	0.19588257
54	0x3e32dcce	0.17467043
55	0xbe887a2f	-0.2665572
56	0xbca5a8fe	-0.020222183
57	0xbe93a32b	-0.28835425
58	0xbe708664	-0.23488766
59	0x3e9f1f7b	0.31078705
60	0x3df83a80	0.12120533
61	0xbe9cbee0	-0.30614376
62	0xbea5dd04	-0.32395184
63	0xbd941c1a	-0.072319224
64	0xbe964f24	-0.29357255
65	0xbe836bf1	-0.2566829
66	0x3e871eae	0.26390594
67	0x3d81a195	0.063296475
68	0x3e695339	0.22785653
69	0x3d84278c	0.064528555
70	0x3e98ce3a	0.29844838
71	0x3dec82ad	0.11548362

fc.bias f4 [8]
0	0xbf4e9897	-0.80701584
1	0xbf33c9af	-0.7022962
2	0xbf8d2103	-1.1025699
3	0xbf91da6b	-1.1394781
4	0xbf3482bc	-0.70511985
5	0xbf31640d	-0.6929329
6	0xbf628635	-0.88486034
7	0xbf1f2ece	-0.62180793
