models_norm/QQQ/MLP/ckpt.pth (torch_old, 1138 bytes, 3 tensors)

0.weight f4 [8, 9]
00000000: d764 293e 3b2c 0abe f59f a33f 4067 9a3e
00000010: c853 d73f b68c 0cbf 0d37 9ebf e82c a33e
00000020: a215 2b3e 450b 763e 407d b4bf d2e4 bc3f
00000030: 4730 c73d d076 b9bf 16bf 9fbe f375 f9bf
00000040: 8c98 97be 6640 cebe 32a8 a9be 3b74 67bf
00000050: 992a 84bf db67 4ebf f22c d93d 37cc 463d
00000060: 0924 bf3e f3a5 ee3d 3c65 64bf cefd 0c3e
00000070: 70cb aebe 7ade 7ebf 68e4 fc3e 7f74 313f
00000080: 56bd 6abf 322e bcbe cc29 c03f 6f79 13bf
00000090: f787 7abd 87df 4cbf a618 41bf 9bb3 483e
000000a0: ab6e f3be 15e5 513f b944 e83d c189 243e
000000b0: dc36 713e 7862 0c3e aae8 813f e54a b03e
000000c0: 5f35 0dbe 8cfa b13f 9ffa 0340 e35e bb3f
000000d0: f0b0 aabe cf2a 21be 5568 183e d8cf 4ebe
000000e0: 82fc b33f f806 f1be cde9 99bf b510 fe3e
000000f0: 35a9 b6be 1b59 08be ddfd cebe 2691 f83e
00000100: 6b8a 7cbd 6ce0 823f dfa1 063e 1f93 363f
00000110: 5750 eb3f 3723 d53e f4b5 8c3f 8113 1cbe
0.16542374 -0.13493435 1.278319 0.30156898 1.6822443 -0.5490221 -1.236055 0.31870198
0.16707471 0.24027736 -1.4100723 1.475733 0.09726005 -1.4489384 -0.31200475 -1.948912
-0.29608572 -0.40283507 -0.33136135 -0.9041173 -1.03255 -0.8062722 0.10604276 0.0485346
0.3733218 0.11652746 -0.8921697 0.13768694 -0.34139585 -0.9955822 0.4939301 0.69318384
-0.91695154 -0.36753994 1.5012755 -0.5760717 -0.061164822 -0.80028576 -0.75428236 0.19599764
-0.4754537 0.81990176 0.11341233 0.16068174 0.23556083 0.13709438 1.0149128 0.3443214
-0.1378989 1.3904586 2.0621717 1.4638332 -0.33338118 -0.15738986 0.1488355 -0.20196474
1.4061434 -0.4707563 -1.2024475 0.4962212 -0.3567597 -0.13315241 -0.40428057 0.4854824
-0.061655443 1.0224738 0.13147686 0.7131824 1.8383893 0.4162843 1.0993028 -0.15241815

0.bias f4 [8]
00000000: e0a8 99be 56d4 153f 47a4 96c0 1bc6 f5bf
00000010: c7ee 65bf 03e4 97be 0c27 6e3f ca18 9d3e
-0.30011654 0.58527124 -4.7075534 -1.9201082 -0.8981747 -0.29666147 0.9302833 0.30682975

2.weight f4 [1, 8]
00000000: 135f b3bf 435a a43f e0b4 8240 5eae cbbf
00000010: e8cf fcbf 7b3c 98bf 59e1 35c0 31ff 0040
-1.4013389 1.2840046 4.0845795 -1.5912588 -1.9750948 -1.1893457 -2.8418791 2.0155756
