models_norm/QQQ/MLP/ckpt.pth (torch_old, 1138 bytes, 3 tensors)

0.weight f4 [8, 9]
00000000: 40ee 0fbe 7723 6dbf c89a 87bd 95cd 883f
00000010: 6c58 c0be d3ed 223f c72b bebe 2dc4 3f3f
00000020: 137c 3fbf 9df4 953f ac5a fa3e eb5e 80bf
00000030: b048 c53f ca29 6a3f 9f64 da3f d2b3 80bf
00000040: dfcf 1b3e 7e5f d1bf e411 2e3d 4765 7fbf
00000050: bd5a 8c3f 2591 a43f 02d8 d1be ef2d 71bf
00000060: 2e87 4b3c bbb4 8e3e 81d3 87be 9a14 8abf
00000070: 7be7 1d3f dd5f da3f 4ddb 2cbf 57bf b03e
00000080: 23bc 53bf 0b1b f2bf ff28 953f 505d 873f
00000090: e346 3dbf a0aa 3bbe 5e82 d23e 3bf2 b23e
000000a0: dd8a 3d40 22f1 cabf 2a2d 53bf 52fb 133f
000000b0: d411 c1be 1db3 24bc e9cc 47be cf97 66bf
000000c0: 8e7f 533e c45e 0b40 780a b0be b586 3bbf
000000d0: 2788 bcbd 2196 8c3d c115 8dbe 00e4 c2be
000000e0: 040e c53f 3ab6 18bf ffc3 053f 73f9 da3d
000000f0: d2ce c6bf 13e1 f83e 841a c23f 74a2 0b3f
00000100: 03c6 8cbf a080 2c3e 649b 963f 7ffd 633f
00000110: 4c8f 1f40 793d 84bf f44e 503f cc2d eebf
-0.14055729 -0.9263224 -0.06621319 1.0687739 -0.3756746 0.6364414 -0.37142774 0.74908715
-0.747987 1.1715275 0.48897302 -1.0028967 1.5412807 0.91470015 1.7061957 -1.0054877
0.15216015 -1.6357267 0.04249753 -0.9976391 1.0965191 1.2856795 -0.40985113 -0.94210714
0.012422366 0.2787226 -0.26528552 -1.0787537 0.61681336 1.7060505 -0.67522126 0.3452098
-0.8270895 -1.8914503 1.1653136 1.0575352 -0.7393629 -0.18326807 0.41115087 0.34950432
2.9616005 -1.5854838 -0.8249079 0.5780536 -0.37708914 -0.01005247 -0.19511761 -0.9007539
0.20654127 2.177659 -0.34382987 -0.7325242 -0.092056565 0.06864572 -0.2755566 -0.38064575
1.5394902 -0.59653056 0.5225219 0.1069211 -1.5531867 0.48609218 1.5164342 0.5454476
-1.0997928 0.16845942 1.1766171 0.8905868 2.4931211 -1.033126 0.8137047 -1.8607726

0.bias f4 [8]
00000000: 8536 35bf bee4 a7bc 9a6f 60bf f4c1 a03f
00000010: 8afc cebf 5f35 b6bf 49b7 773f a57c e93d
-0.70786315 -0.020494815 -0.8767029 1.255919 -1.6170819 -1.4235038 0.96764046 0.11400727

2.weight f4 [1, 8]
00000000: 56a9 e3bf 156b d6bf 05a6 a73f bc1f 0640
00000010: ad29 2ac0 1e20 3c40 4f07 1cc0 b6b1 0c40
-1.7786052 -1.6751429 1.309754 2.095687 -2.6587937 2.9394603 -2.437946 2.1983466
