models_norm/QQQ/MLP/ckpt.pth (torch_old, 1138 bytes, 3 tensors)

0.weight f4 [8, 9]
00000000: 9946 9fbf 65ea 23bf ef0f 90be 1920 693f
00000010: a773 7cbd a7fd 32bd a53e b9bf ba91 18bf
00000020: 2a17 433f b99e 35be b38d 773e 3e86 cebf
00000030: 6f80 2c3f e86f d83f 50b6 9cbc 7906 0840
00000040: c801 083f fb61 6b3f 9f4b febe 36d2 18bf
00000050: 0e91 80bf 4efe 3d3f 6d97 11c0 1c36 f13e
00000060: 3e01 1abc 1be4 bfbf de46 01bf b186 a43e
00000070: 2a5a 563f 86b6 db3f fd13 28bf 5aca 3f3f
00000080: 1cb9 c6be fd41 8dbe e51a 0e3e ed64 863f
00000090: 6b54 e53e 43b8 8a3c 7f72 f53e 9965 2fbf
000000a0: 1893 a2bf cf97 55bf 6254 883f 077b 01be
000000b0: 5aff 63be a428 d83e 0a61 283f a691 533f
000000c0: e6d9 793f 2869 aabd b6e8 4e3e f1c2 29bf
000000d0: 9f6d 36be afd5 703f 1a17 b43e d63d b4bf
000000e0: 62f2 0240 e0d9 acbe f6ab 00c0 173d 00bf
000000f0: 09e4 31c0 55bc 0ebf 54f1 b8be fecb 3b3f
00000100: c1ec 923d 6905 4a40 a7f7 c2be 083b 1e3f
00000110: af15 603d f43f d6bf 0de8 14be b891 fd3f
-1.244342 -0.6402953 -0.28137156 0.910646 -0.061633732 -0.043698933 -1.4472243 -0.5959736
0.7620722 -0.17736329 0.24175148 -1.6134717 0.67383474 1.6909151 -0.019129902 2.125395
0.5312772 0.9194638 -0.4966707 -0.59695756 -1.0044267 0.74216163 -2.2748673 0.47111595
-0.00939971 -1.4991487 -0.5049876 0.3213401 0.8373133 1.7165077 -0.656555 0.7491814
-0.38813102 -0.27589408 0.13877447 1.049955 0.44790968 0.016933566 0.47938916 -0.685144
-1.270114 -0.83434767 1.0650752 -0.12644587 -0.22265378 0.42218506 0.6577307 0.82644117
0.9759811 -0.08320838 0.2020596 -0.6631308 -0.17815255 0.94076055 0.35173875 -1.4081371
2.0460439 -0.33759975 -2.0104957 -0.50093216 -2.7795432 -0.5575612 -0.3612162 0.7335814
0.071740635 3.1565802 -0.3807957 0.61808825 0.05470818 -1.6738267 -0.14541645 1.9810095

0.bias f4 [8]
00000000: 738b 09bf d3b0 55bf 13e3 2b3e 5190 ac3e
00000010: 3eac 63be d8c8 9740 382b 5a3f 52cb ff3e
-0.5372841 -0.8347294 0.1678584 0.33703855 -0.22233674 4.743267 0.85222197 0.4995981

2.weight f4 [1, 8]
00000000: 9436 9cbf d562 2940 dcec bd3f cb78 4f40
00000010: de07 d2bf 0ad6 62c0 9db9 4740 6561 09c0
-1.2204156 2.6466572 1.4837909 3.2417476 -1.6408651 -3.544314 3.120704 -2.1465695
