models_norm/QQQ/MLP/ckpt.pth (torch_old, 1138 bytes, 3 tensors)

0.weight f4 [8, 9]
000000 c0 ba c2 3d 9d c8 c8 3e 30 0f 82 3e 4d 40 9e be
       0.09508276 0.39215556 0.25402212 -0.30908433
000010 45 bf d6 be c3 88 3d 3f b2 98 50 be 42 0f 97 bf
       -0.41942802 0.74036807 -0.20370749 -1.1801531
000020 2d 6b 9b 3f e5 7f 88 3f 35 9b d3 bf 5e 84 b4 bd
       1.2142082 1.066403 -1.653174 -0.088143095
000030 71 6a 2a 3f 34 cb 14 be 4a f9 06 c0 c8 51 35 3e
       0.66568667 -0.14530641 -2.1089654 0.17706978
000040 47 b4 34 3f 15 9c 3d bf 81 6b f3 bf 58 b0 66 bf
       0.7058758 -0.7406629 -1.9017183 -0.9011283
000050 d9 e1 5c bf 5f 46 4b 3f 11 16 3b be e9 bb df 3e
       -0.86282116 0.7940425 -0.18270136 0.43698052
000060 c3 b2 d4 bf da d9 96 be 91 43 19 3f 60 e2 62 bf
       -1.6617054 -0.29463083 0.59868723 -0.8862667
000070 43 1f cf 3e ac d3 07 bf 04 42 d6 be 1a f2 7f bf
       0.40453538 -0.5305736 -0.4184724 -0.9997879
000080 fe c9 41 3e da 88 36 3f b0 49 9c 3e b1 15 59 bf
       0.1892471 0.7130257 0.3052497 -0.84798723
000090 eb c7 cc bf 07 df b3 be 0b 9e a8 be a1 ef 0f 3f
       -1.599851 -0.35131094 -0.32933077 0.5622502
0000a0 7d 61 6c 3e 97 cd e3 3f 1b 8d d5 bf 70 29 56 be
       0.23084064 1.7797116 -1.6683687 -0.20914245
0000b0 1a 2f d3 3d 5e 4e 21 bf 62 87 c3 3f 57 c9 89 3f
       0.10311718 -0.63010204 1.527569 1.0764569
0000c0 2d df 9d 3e 06 77 22 bf 90 1e e6 3f 3b b4 fb 3f
       0.30834332 -0.63462865 1.7978077 1.9664377
0000d0 59 96 a1 be 98 6e 19 bf 3c f1 bd 3f 7e 72 53 3d
       -0.3156002 -0.5993438 1.4839244 0.05162286
0000e0 92 9c 2d 3f 26 ad 88 bf 85 03 c5 3e fe bd ea bd
       0.6781703 -1.0677841 0.38479248 -0.114620194
0000f0 24 68 0b c0 a8 45 b7 bf c9 10 a3 3e 34 7e 3a bf
       -2.1782312 -1.4318132 0.31848744 -0.7284882
000100 30 b6 17 bf 67 b0 89 be 92 51 9b 3e a5 e9 6e bf
       -0.5926237 -0.26892397 0.3033567 -0.93325263
000110 43 69 5d 3f 5d bc 54 bd 49 2c 39 3f a5 1b cb 3e
       0.8648874 -0.05193745 0.723332 0.3966953

0.bias f4 [8]
000000 b9 36 13 3f ff dc 50 bf 4d 85 27 bf f2 c8 59 c0
       0.57505375 -0.81587213 -0.65437776 -3.4028897
000010 d9 dd f4 be a5 d6 f3 be 60 5f 2a 3e 2a 7a 7b bf
       -0.47825506 -0.47624698 0.16637945 -0.9823328

2.weight f4 [1, 8]
000000 b5 69 06 40 62 74 a7 3f 97 25 16 c0 74 48 2f 40
       2.1002018 1.3082392 -2.3460443 2.7387972
000010 ed 9c 2d 40 c9 84 a7 bf 12 b9 c3 bf 79 44 a8 bf
       2.712703 -1.3087398 -1.5290854 -1.3145896
