models_norm/QQQ/PSN/ckpt.pth (torch_old, 861 bytes, 2 tensors)

fc.weight f4 [8, 9]
00000000: c10d 4a3e bd2d 283e cd1b 863e 8195 e83e
00000010: 6ae3 013e 9783 743e 743a 633e 9ef3 493d
00000020: 4e66 5cbd 7ac6 8cbd aad4 a5be 4b00 a6be
00000030: 1f88 48be d444 83be d519 423d 49a1 96be
00000040: fecb 8a3e 6b6f 7f3e 70a7 8ebd 84ba 823c
00000050: 87e3 a43d 1adc c73e c06b 1ab9 b84d 5abe
00000060: a8f6 96bd 432a 7cbe 50c0 883d 14c7 653e
00000070: e4d9 0cbd 3248 5e3e 88df f33d dcd7 f73d
00000080: 3aa9 c13e 9ab2 313e 5ab3 0b3d b472 69bb
00000090: b24d de3b 67e5 e4bd 4d0a e53d 5f9c 1a3d
000000a0: 9cfa a23e abeb 9a3e 5470 9e3e 1ab6 7b3e
000000b0: a7ca 2e3d e725 933c 424f b43e dbea 0f3f
000000c0: 868c f2bc bbf4 ae3e 567e b1bd 6a0b 96bc
000000d0: 644a 32be fae9 c5bd faa7 60bd 809c 3fbd
000000e0: 90f2 e13c 118b bd3e 14e1 593e f8d8 233e
000000f0: d4a2 003e 4d87 71be 8cc3 6e3c 1663 253d
00000100: 4653 033e c2a1 f0bd 6f6b 86bd 2401 32be
00000110: 12cf b7be 9774 30bd 8a81 433e dc8d 55bd
0.19731809 0.16423698 0.26193085 0.45426562 0.12684408 0.23878323 0.22190267 0.049304597
-0.053808503 -0.06873794 -0.32388812 -0.324221 -0.19583176 -0.2563845 0.047387917 -0.29419926
0.2710876 0.24944846 -0.0696553 0.015958078 0.0805121 0.39035112 -0.00014726724 -0.2131871
-0.07371265 -0.24625497 0.06677306 0.22439224 -0.034387484 0.21707228 0.119078696 0.12101719
0.37824422 0.17353287 0.03410659 -0.0035621347 0.0067841643 -0.111765675 0.11183605 0.037746783
0.31831825 0.30257925 0.30945075 0.24581185 0.042673733 0.01796241 0.3521672 0.56217736
-0.029608022 0.3417109 -0.08666675 -0.01831599 -0.1741119 -0.09663768 -0.054847695 -0.04678011
0.027581483 0.37020162 0.21277267 0.16000736 0.12562114 -0.2358677 0.014572989 0.0403777
0.12824735 -0.11749603 -0.0656346 -0.17383248 -0.3590017 -0.04307994 0.19092384 -0.05213724

fc.bias f4 [8]
00000000: fcfa d9bf 15d3 aa3f 8e62 5cbf 5d16 bfbf
00000010: 6317 c5bf 74c0 a6bf 02a2 95bf b228 8e3f
-1.7029719 1.3345667 -0.8608788 -1.49287 -1.5397762 -1.3027482 -1.1690066 1.1106169
