models_norm/QQQ/PSN/ckpt.pth (torch_old, 861 bytes, 2 tensors)

fc.weight f4 [8, 9]
0	0xbe3d2602	-0.1847153
1	0xbd2b652a	-0.041844524
2	0xbe85a75d	-0.2610425
3	0xbeee2ee0	-0.46520138
4	0xbd25ca7e	-0.040476315
5	0xbf2f76ea	-0.68540823
6	0xbe1673ea	-0.14692655
7	0xbde54522	-0.11194827
8	0xbee2dc3d	-0.44308653
9	0x3e98d851	0.29852536
10	0x3ec892c3	0.3917447
11	0x3e630915	0.22171433
12	0xbf1a74e6	-0.6033462
13	0x3deabbe7	0.11461621
14	0xbe913368	-0.28359532
15	0xbe9038e7	-0.28168413
16	0xbe49d35b	-0.19709532
17	0xbe4f3aa7	-0.20237218
18	0xbe9a2b46	-0.3011114
19	0xbe8f14ea	-0.27945644
20	0xbdd715f4	-0.10502234
21	0xbeb254de	-0.34830374
22	0xbe584480	-0.2111988
23	0xbe691f61	-0.22765876
24	0xbe88f90f	-0.26752517
25	0xbebcc567	-0.36869356
26	0x3df45d37	0.11931842
27	0x3e79fa3e	0.24411866
28	0x3cbb8767	0.022891713
29	0x3e0684fa	0.13136664
30	0x3effed34	0.4998566
31	0x3babafd3	0.0052394657
32	0x3f181093	0.5940029
33	0x3e45a952	0.19302872
34	0x3e779ed7	0.24181686
35	0x3e105cfc	0.1409797
36	0x3e0c57b1	0.13705327
37	0x3e6a5503	0.22883992
38	0x3d8942ab	0.06702169
39	0xbf01f2f2	-0.5076133
40	0x3cf79455	0.030222097
41	0xbebf50d1	-0.37366346
42	0xbe8781df	-0.2646627
43	0xbdef8a8f	-0.1169635
44	0xbe79343a	-0.24336329
45	0x3dac92c6	0.08426432
46	0x3d857a28	0.0651744
47	0x3e9d5ed2	0.30736405
48	0x3e254f1f	0.16143464
49	0xbbe4416e	-0.0069658076
50	0x3f083d9a	0.53218997
51	0x3e3a28b7	0.18179594
52	0x3d437646	0.047720216
53	0x3e26334d	0.16230507
54	0xbe1192d4	-0.14216167
55	0xbf1812f7	-0.5940394
56	0xbf6d13f2	-0.9260856
57	0x3ed2ddea	0.41184932
58	0xbf45fe57	-0.77341217
59	0x3ee1dee1	0.44115356
60	0xbde93b02	-0.11388208
61	0x3f35a8e5	0.7096084
62	0xbe9434a0	-0.289464
63	0xbe1efb5b	-0.15525572
64	0xbd959bad	-0.073050834
65	0xbc6c9141	-0.014438928
66	0xbeca2385	-0.39480224
67	0xbc0b0e29	-0.008487263
68	0xbe87afb0	-0.26501226
69	0xbeecc2aa	-0.46242267
70	0xbecad97f	-0.3961906
71	0x3e655350	0.22395062

fc.bias f4 [8]
0	0x400afdf6	2.1717505
1	0x3f9b1358	1.2115278
2	0x3ffb1834	1.9616761
3	0xc00120de	-2.017631
4	0x3fbbd3bb	1.467399
5	0xbfda57d0	-1.7058048
6	0x3fb3ce84	1.4047399
7	0x3fe0a728	1.7551012
