models_norm/QQQ/RNN/ckpt.pth (torch_old, 1859 bytes, 5 tensors)

rnn.weight_ih_l0 f4 [10, 8]
0.59831434 0.038463823 0.23416792 1.110148 0.85193765 -0.37015676 -0.013827711 -1.0597425
1.5877033 -0.42911875 0.91202635 1.0110207 -0.352244 -0.016770713 -0.2871905 0.12364164
-0.09767064 0.44375095 -0.059609633 0.8831123 0.16871794 -0.38099346 0.5106137 1.6756036
1.0632766 0.26360044 -0.917158 -1.5058974 0.7797513 0.027369432 0.49363738 -0.12403075
0.033011433 0.5054882 0.83632165 0.7427621 1.4170349 0.5062239 0.052901972 -1.8072625
0.19510947 -0.10213953 0.071341515 0.22137432 -1.2008834 -0.9546047 -0.7788877 0.10836763
-0.04658278 -0.21083511 0.40342388 -0.7601947 0.34156576 0.5618333 0.06607356 -1.2674718
-0.100570194 0.26002297 -1.9552108 -1.0242243 0.7003592 -0.023363076 -0.0054629184 -0.47668296
-0.38958606 -0.11219323 0.653039 0.67103946 0.6912957 0.9686167 -0.35049197 -0.4439912
-0.75602925 -0.63321716 -0.87850755 -0.1247694 1.5876951 1.2388005 1.0747662 0.32161957
00000000: 212b 193f 3e8c 1d3d b7c9 6f3e 5419 8e3f
00000010: 9618 5a3f 3085 bdbe a08d 62bc a4a5 87bf
00000020: dd39 cb3f 74b5 dbbe 8f7a 693f 2069 813f
00000030: 5359 b4be bc62 89bc a20a 93be d437 fd3d
00000040: 8b07 c8bd 5333 e33e 3b29 74bd a613 623f
00000050: 65c4 2c3e 9311 c3be 94b7 023f 2e7a d63f
00000060: 7319 883f a3f6 863e deca 6abf 3fc1 c0bf
00000070: c89d 473f dc35 e03c 0abe fc3e d503 febd
00000080: ff36 073d ad67 013f 2d19 563f a825 3e3f
00000090: 6661 b53f e497 013f bdaf 583d 6154 e7bf
000000a0: c7ca 473e 882e d1bd 801b 923d f3af 623e
000000b0: 8cb6 99bf f960 74bf 2f65 47bf d9ef dd3d
000000c0: 96cd 3ebd 29e5 57be 938d ce3e 1f9c 42bf
000000d0: b5e1 ae3e 4fd4 0f3f 9351 873d 843c a2bf
000000e0: bff7 cdbd bb21 853e 5944 fabf c819 83bf
000000f0: be4a 333f ec63 bfbc 4802 b3bb ca0f f4be
00000100: d377 c7be 90c5 e5bd 902d 273f 3ec9 2b3f
00000110: c1f8 303f 44f7 773f af73 b3be d152 e3be
00000120: 228b 41bf 851a 22bf dfe5 60bf 1987 ffbd
00000130: 9839 cb3f 0491 9e3f f091 893f 52ab a43e

rnn.weight_hh_l0 f4 [10, 10]
0.09414855 -0.08263393 -0.061053693 -0.17647615 -0.18464173 0.18267083 0.1709753 0.20068434
-0.30100054 -0.2067239 0.1221703 -0.13361344 0.008850932 -0.02578488 0.2572299 -0.09407003
0.16181263 0.056242287 0.28119817 0.2500241 0.1439968 0.026735932 -0.24391186 0.20931533
-0.30432555 -0.27776635 0.005299151 -0.02788958 -0.023388714 -0.23877382 0.05075869 -0.09395012
-0.2590889 0.1349282 0.22682354 -0.13834663 0.18964794 -0.076580375 -0.23536286 -0.03996733
-0.13690881 -0.07795939 0.020650864 0.16737577 -0.15295523 0.102493525 0.15362015 -0.10010104
0.037356347 -0.20402397 -0.29112044 -0.25991517 0.1264897 -0.078857526 -0.11102782 0.08739352
0.11068553 0.055788547 -0.26175252 0.29629192 -0.26968247 -0.16076495 0.09233719 -0.015425026
0.062337488 -0.1242239 0.028128624 -0.22058237 0.18838832 -0.29448012 0.13596019 0.16423744
0.18223092 0.20798305 -0.036798626 0.12328559 0.044166923 0.24199149 -0.17520262 -0.11869733
0.21812055 0.08355394 -0.0019287765 -0.20150165 0.22285965 0.15677166 0.22562465 0.24488226
-0.070902675 -0.24228409 0.05366811 -0.016750425 0.06507227 -0.16531315 -0.11633107 0.25666746
0.29131606 0.24473777 -0.024039537 -0.2672427
00000000: f4d0 c03d fa3b a9bd 7013 7abd 2ab6 34be
00000010: b912 3dbe 100e 3b3e 2614 2f3e 3280 4d3e
00000020: be1c 9abe 6eaf 53be 6c34 fa3d f6d1 08be
00000030: 8003 113c d03a d3bc a3b3 833e caa7 c0bd
00000040: 36b2 253e 505e 663d 35f9 8f3e 2903 803e
00000050: e673 133e 5005 db3c 08c4 79be c256 563e
00000060: 8fd0 9bbe 6437 8ebe 80a4 ad3b b078 e4bc
00000070: b099 bfbc 2081 74be 58e8 4f3d ec68 c0bd
00000080: 4da7 84be 9e2a 0a3e 6e44 683e bdaa 0dbe
00000090: 1233 423e 2cd6 9cbd f602 71be c8b4 23bd
000000a0: d331 0cbe 2ca9 9fbd 002c a93c 8e64 2b3e
000000b0: 4ca0 1cbe 20e8 d13d 9a4e 1d3e c601 cdbd
000000c0: f802 193d a9eb 50be bd0d 95be 9a13 85be
000000d0: 8486 013e 0e80 a1bd 8e62 e3bd 60fb b23d
000000e0: 18af e23d 8882 643d 6d04 86be 93b3 973e
000000f0: d213 8abe 919f 24be 481b bd3d 40b9 7cbc
00000100: 9855 7f3d 1a69 febd 006e e63c 58e0 61be
00000110: dee8 403e 19c6 96be 2639 0b3e dc2d 283e
00000120: be9a 3a3e 82f9 543e 28ba 16bd 287d fc3d
00000130: 60e8 343d 9ecc 773e 5168 33be 9617 f3bd
00000140: fe5a 5f3e 541e ab3d 00cf fcba 7356 4ebe
00000150: 5235 643e c088 203e 260a 673e 6ac2 7a3e
00000160: 6c35 91bd 5219 78be 18d3 5b3d 3038 89bc
00000170: 9c44 853d da47 29be fc3e eebd eb69 833e
00000180: 6127 953e 8a9c 7a3e 90ee c4bc 09d4 88be

rnn.bias_ih_l0 f4 [10]
0.49291426 0.26594162 -0.18547359 -1.5088369 0.5811507 -0.17505692 -0.1599501 -0.8528093
0.66020024 0.10999734
00000000: 425f fc3e 8029 883e caec 3dbe 9121 c1bf
00000010: 4bc6 143f 1f42 33be f6c9 23be b651 5abf
00000020: e202 293f 4946 e13d

rnn.bias_hh_l0 f4 [10]
0.47603568 -0.056160677 0.06410174 -1.5044798 0.7879724 -0.25701466 -0.49190947 -0.72757363
1.036312 0.4300153
00000000: f3ba f33e bd08 66bd c647 833d cb92 c0bf
00000010: 8fb8 493f 6d97 83be 8fdb fbbe 4442 3abf
00000020: dfa5 843f f72a dc3e

fc.weight f4 [1, 10]
-1.0466664 0.6616951 0.7392852 -1.0162607 1.206859 1.2833953 0.8174696 0.7575019
-0.881208 1.0127302
00000000: 2af9 85bf da64 293f cb41 3d3f d514 82bf
00000010: 5b7a 9a3f 4c46 a43f b045 513f a5eb 413f
00000020: d996 61bf 25a1 813f
