models_norm/QQQ/RNN/ckpt.pth (torch_old, 1883 bytes, 5 tensors)

rnn.weight_ih_l0 f4 [10, 8]
00000000: b157 e3be af88 34bf 852f c83c 3394 46bf
00000010: e85a f4be adf7 d63e be5f d63d f6c5 183f
00000020: ecbe 89bd bef1 c83e 0f9f 0440 be3b c53e
00000030: 354f cfbf b936 0abe 2acd c1bd f027 0f3f
00000040: 3345 89be b211 673f fab2 e33f cbe1 453f
00000050: 86f7 03c0 3a3d 44bd ca81 993d 3be3 5b3d
00000060: b479 133f c57f 053f 1ee3 e23e 8822 b23f
00000070: 3610 91bf 5eb5 a7be 021f b83e 8608 603e
00000080: e8ce 83bf 55d0 03be 3d59 4d3f f529 abbe
00000090: cea5 653f c1d3 59bf e30c debe 5ad9 2b3f
000000a0: 2242 a73f 3552 5d3f 3313 ba3f d62d 9abe
000000b0: d30e 56bf cf4e eebe bd10 04bf 21cd d1bc
000000c0: ad73 5e3e aa56 5bbf 4642 a0be aebb d0bd
000000d0: 581d 9abf 4fe6 e8bd 036e 913e cc51 dd3f
000000e0: c8ee f23f 9859 173f e597 cd3f c9df 86bf
000000f0: 9391 0abf 77b7 8dbe cadb 0dbf 36a3 333f
00000100: b938 e7bf b291 043d 68af 733f afdc 0cbf
00000110: 20eb 143f 2613 c9bf fe15 cebe e6c7 263f
00000120: cc6b 2dbe f009 aabe 35c6 b63d 0064 95be
00000130: 722e 9bbf 0365 e9bf 08cf a1bd cc8b 053f
-0.4440284 -0.7052106 0.024436722 -0.77569884 -0.47725606 0.41985837 0.1046748 0.59677064
-0.067258686 0.39246935 2.0722082 0.38522142 -1.6196047 -0.13497438 -0.0946296 0.55920315
-0.26810607 0.90261376 1.7788994 0.7729766 -2.0619826 -0.047909953 0.074954584 0.0536835
0.5760758 0.52148086 0.44313902 1.3916788 -1.1333072 -0.3275556 0.35961157 0.21878251
-1.0297518 -0.12872441 0.8021429 -0.33430448 0.8970612 -0.85088736 -0.43369207 0.6712853
1.3067057 0.8645356 1.4537109 -0.30113095 -0.8361637 -0.465445 -0.5158804 -0.025610508
0.21723814 -0.85679114 -0.31300563 -0.10192047 -1.2040205 -0.11372053 0.28404245 1.7290587
1.897912 0.59121084 1.606198 -1.0537044 -0.5412838 -0.27679035 -0.55413496 0.70170915
-1.8064185 0.03236551 0.95189524 -0.55024236 0.5817127 -1.5708969 -0.40251154 0.6514877
-0.16935652 -0.33210707 0.08924524 -0.29177856 -1.2123549 -1.8233951 -0.07900816 0.5216644

rnn.weight_hh_l0 f4 [10, 10]
00000000: bd20 9e3e eccc 5cbe 4fd6 a1be 3338 21be
00000010: 7fd2 923e 8ea2 67be cd13 843e ca9c 56be
00000020: 5421 e93d 0641 513e 2d9f 933e 3ac8 7d3e
00000030: e18a 2abe f8bc 0d3d f0fa 91be dcf8 a5bd
00000040: 7826 7cbd f8d8 55bd 0892 35be 4c71 31be
00000050: 6598 98be 8966 803e 0094 e6bc 924e e9bd
00000060: 818e 03be 00ed 063b 6e90 733e 8099 aa3b
00000070: 902c d3bd 7094 6abd 4e34 3ebe 6cec 19be
00000080: 5803 4bbe 205c be3d c0fa cb3c 104e 08bd
00000090: 84f6 273e 6d8f 833e 60eb dc3d c2ba 513e
000000a0: e84f 233e 327d 9cbd b576 913e 42df 8ebd
000000b0: 13c9 89be 32b1 3e3e de0c 4d3e fdf8 9bbe
000000c0: e37a 8b3e fafe febd c017 fabd 1895 2bbd
000000d0: fc83 21be ba01 023e 3b65 8ebe 2240 4d3e
000000e0: a09e 553d 6009 25be da96 48be 70a5 7dbe
000000f0: f364 0ebe 1e5d 02be 871e 9a3e f20b 733e
00000100: dea9 543e a411 fdbd 226c 97be 8439 65be
00000110: c836 7b3d 00da e93a d01b 533d 642b bcbd
00000120: a8c3 04be b6bc 8ebd 0079 a73a 4bdc 99be
00000130: 22c2 24be 004c dcba 7db2 883e d01b 65be
00000140: 7441 9fbe 8efc 553e b684 a7bd 2dd3 a1be
00000150: 9a8e 763e 4acb 23be 6830 77bd b60d d4bd
00000160: dbf9 813e 2475 2f3e 39f0 66be 28f6 e3bd
00000170: 8c34 33be a011 3dbc 00aa a9bd 2d9e 9e3e
00000180: 8c43 9cbe 6043 fdbc 7eb5 3c3e 80e9 7ebb
0.30884352 -0.21562546 -0.31608817 -0.15744095 0.2867622 -0.22620603 0.25796357 -0.20958248
0.1138331 0.2043496 0.2883238 0.24783412 -0.1665454 0.034604043 -0.28511763 -0.08104107
-0.061560124 -0.05220887 -0.17731488 -0.17328376 -0.29803768 0.25078228 -0.028146744 -0.11391939
-0.1284733 0.002058804 0.23785564 0.005206287 -0.10311234 -0.057270467 -0.1857464 -0.15031594
-0.19825494 0.09294915 0.02489984 -0.03327757 0.16402632 0.25695363 0.10787082 0.20481399
0.1594845 -0.076410666 0.2841088 -0.06976177 -0.2691122 0.18622282 0.2002444 -0.304634
0.27242193 -0.12450977 -0.12211561 -0.041890234 -0.15773004 0.12695971 -0.27811608 0.20043996
0.05215323 -0.16116858 -0.19588795 -0.2477014 -0.13905697 -0.12730834 0.30101416 0.23735026
0.20767924 -0.1235688 -0.29574686 -0.22385222 0.06133154 0.0017841458 0.051540196 -0.091879636
-0.12965262 -0.069695875 0.001277715 -0.30050883 -0.16089681 -0.0016807318 0.26698676 -0.22373891
-0.31104624 0.20897123 -0.081796095 -0.31606427 0.24077836 -0.15995517 -0.0603489 -0.10354178
0.25385937 0.1713453 -0.22552575 -0.11130935 -0.17500514 -0.011539847 -0.08284378 0.30980054
-0.30520284 -0.030915916 0.18428609 -0.00388965

rnn.bias_ih_l0 f4 [10]
00000000: 6b2e bcbe 3f45 533f a5b5 b53f 1786 4cbf
00000010: ef5e 54bf 84a5 1a3e 782b 09bf 6b92 ac3e
00000020: 1f6f 9abf e95f 9dbf
-0.36754164 0.82527536 1.4196059 -0.79892105 -0.8295736 0.15102202 -0.53581953 0.33705458
-1.2065161 -1.2294894

rnn.bias_hh_l0 f4 [10]
00000000: 4998 ecbd c487 9c3f 3e00 793f 0d31 2bbf
00000010: bf56 94bf d10b 643c 8eee 39bf 6ec5 a83d
00000020: 4d97 b9bf 1752 98bf
-0.115524836 1.2228932 0.97265995 -0.6687172 -1.1588973 0.013918833 -0.7262963 0.08240782
-1.4499298 -1.1900052

fc.weight f4 [1, 10]
00000000: e691 1f3f 0618 a6bf 2aaa a03f 6859 333f
00000010: 6f53 953f ec3b 8abf 9771 4fbf c13d 673f
00000020: 4057 a1bf 770e 513f
0.62332 -1.2976081 1.255193 0.700583 1.1666087 -1.0799537 -0.810327 0.90328604
-1.2604752 0.81662697
