models_norm/SPY/PSN/ckpt.pth (torch_old, 741 bytes, 2 tensors)

fc.weight f4 [5, 9]
00000000: 2eae 99be 3063 98be e063 9fbf 1d56 c5be
00000010: dc9c b6be 0c88 a23d 4fa8 37bf b4bd c8be
00000020: 719a f7bb fc06 c73e 7953 6f3f d205 1a3f
00000030: a483 843f 8ffd d53e 2f62 523e 5b1b 8a3e
00000040: 5dd5 82bd 3c92 cbbd b481 8e3e 3923 803f
00000050: 81cd c43e dcbf b13f c647 1e3f 0bcc 0b3f
00000060: dcf3 c3be 1f94 3abf 6d95 083f c89e bf3e
00000070: 14ad 683f 7ff8 173f 7cc0 813f 7380 9e3e
00000080: 47a9 4d3e 112b 673e da4a 0fbe 853f 93bd
00000090: ec03 143f 2c04 fbbd 19c7 9b3f 082c 78bc
000000a0: 9873 a73e 63b9 e5be 5b07 853f 21c8 c83e
000000b0: ede7 6a3e
-0.300157 -0.29763174 -1.2452354 -0.38542262 -0.3566655 0.07936105 -0.71741194 -0.39207232
-0.0075562526 0.38872516 0.93486744 0.6016513 1.0352674 0.41795012 0.20545267 0.26973996
-0.06388352 -0.09940001 0.2783333 1.0010749 0.38438037 1.3886676 0.6182827 0.5460822
-0.38271987 -0.72882265 0.53353006 0.37425828 0.90889096 0.5936355 1.0136867 0.30957374
0.20084105 0.22575022 -0.13993397 -0.0718985 0.57818484 -0.12256655 1.2170135 -0.015147217
0.3270538 -0.44868 1.039287 0.39215186 0.22940035

fc.bias f4 [5]
00000000: a126 3840 53df 3ac0 eec3 3cc0 9d9a 30c0
00000010: d65a 2cc0
2.8773577 -2.9198806 -2.9494586 -2.7594368 -2.6930442
