models_norm/SPY/PSN/ckpt.pth (torch_old, 741 bytes, 2 tensors)

fc.weight f4 [5, 9]
00000000: 0b82 ce3e 5ce0 4f3f 9e9d 373f 6c4e 303f
00000010: e737 103e 7375 293d 4983 b43e 0d89 b9bd
00000020: 333d d7bd 4b02 c3be d033 69bf 6748 1ebf
00000030: 3b62 8abf 8861 29bf 7223 03be 4a14 b8be
00000040: 70c5 cf3c b665 8c3d 1a92 72be 8617 91bf
00000050: c3d6 96be 3386 c5bf 455b d7be 1010 23bf
00000060: 70b7 083f 6ca6 803f 43cb 02bf a03c 83be
00000070: 54e3 f2be 2923 91bf 50f9 0bbf 08c7 f2be
00000080: f6b8 9f3d 4188 35bf 4362 b9be 0117 0c3d
00000090: e01f 093f 03c4 50be ac4b b73f 8cbb 9cbd
000000a0: 4945 003f 2cb7 ddbe 36f9 8f3f fc68 073f
000000b0: 3734 893e
0.4033359 0.8120172 0.7172488 0.6886966 0.14083825 0.041371774 0.35256413 -0.090593435
-0.1050972 -0.38087687 -0.91094685 -0.6182923 -1.0811228 -0.66164446 -0.1280649 -0.3595298
0.0253627 0.06855337 -0.23688546 -1.1335304 -0.29460725 -1.5431579 -0.4206182 -0.63696384
0.53404903 1.0050788 -0.510914 -0.2563219 -0.47439063 -1.1338855 -0.54677296 -0.47417474
0.077989504 -0.7091103 -0.3620778 0.034201626 0.5356426 -0.20387273 1.4319968 -0.07652959
0.5010572 -0.43303812 1.1247928 0.5289457 0.2679765

fc.bias f4 [5]
00000000: 59f7 1ec0 298d 4740 d21e 2f40 d1c5 3f40
00000010: fc59 3fc0
-2.483847 3.1179907 2.7362561 2.9964488 -2.9898672
