models_norm/DIA/RNN/ckpt.pth (torch_old, 1523 bytes, 5 tensors)

rnn.weight_ih_l0 f4 [7, 8]
000000 0d ba 3f 40 54 da fd 3f 22 04 8f 3f 71 7b 0e 40
       2.9957306 1.9832253 1.1173136 2.2262843
000010 d0 7b 02 c0 06 81 0a c0 b9 52 f5 bf 10 e2 20 40
       -2.038807 -2.164125 -1.916587 2.5137978
000020 49 db ad bf ec 18 96 3f e2 fc 20 bd 46 80 ff be
       -1.3582546 1.1726356 -0.039303668 -0.49902552
000030 a7 8d 1e 40 a9 74 2a 3f 03 59 7f bd f5 05 66 bf
       2.4773958 0.6658426 -0.062340748 -0.8985284
000040 73 c5 ee be 82 99 f0 3f 62 e2 89 3e 34 cb 8e bf
       -0.46635017 1.8796847 0.2693053 -1.1155763
000050 ca 29 a4 bf e6 24 61 3f aa 25 89 be 77 5f 27 3e
       -1.2825253 0.8794693 -0.26786548 0.1634501
000060 de f1 df 3e 3f 25 18 bf 1f 56 ee 3d d2 bd 23 c0
       0.43739218 -0.59431833 0.1163752 -2.5584607
000070 25 1c 4f 40 0a ce 2e be 48 35 8e 3f 58 7c 66 3e
       3.2360928 -0.17070785 1.111001 0.22508371
000080 18 e3 cc 3e 95 77 92 3f 30 1f 76 be 96 e9 55 40
       0.4001701 1.1442744 -0.24035335 3.342382
000090 f3 61 9a 3e 23 f5 02 c0 e7 3b f0 bf f6 a0 2e c0
       0.30152854 -2.046212 -1.8768281 -2.7285743
0000a0 68 cd 0f c0 25 27 b4 bd f8 e7 17 3f 57 b5 95 3f
       -2.246912 -0.08796529 0.5933833 1.1695966
0000b0 58 6c 3a 40 10 1c 13 3f 54 36 44 bf 5e 44 e0 be
       2.9128628 0.57464695 -0.766454 -0.4380216
0000c0 16 81 29 3f 67 2c aa 3f 90 6d 06 bf 45 c5 6f 3f
       0.66212595 1.32948 -0.5251093 0.93660384
0000d0 81 dc 4f c0 70 80 fd 3d 7b 6d e9 be df 6c 84 3e
       -3.2478335 0.12378013 -0.4559134 0.25864312

rnn.weight_hh_l0 f4 [7, 7]
000000 61 4f 9c 3e ac ab fa 3d b0 85 8c 3d c4 01 cf bd
       0.3052931 0.12239775 0.06861436 -0.10107759
000010 e2 de 78 be 3c de b2 be f0 3f bd 3c 70 d3 26 bd
       -0.24303773 -0.34935176 0.023101777 -0.040728986
000020 00 b0 24 bc 38 a6 b2 3d 88 25 20 3d 5a 13 4d 3e
       -0.010051727 0.0872311 0.039098293 0.20026913
000030 02 ad 0f be c6 9a b9 be e7 ef a0 3e 8c 7f 94 3d
       -0.14030841 -0.36250895 0.3143303 0.0725089
000040 e8 a4 3e 3d c8 18 1d 3d f0 d0 ed 3c 56 36 60 3e
       0.046543986 0.03835371 0.029030293 0.21895728
000050 b1 87 bc 3e 60 35 69 bc f1 32 98 3e d6 1a 1d 3e
       0.36822274 -0.014233917 0.29726365 0.15342268
000060 d0 7d eb 3d 72 db 4f be fa 55 19 3e 4f e6 41 be
       0.11498606 -0.20298555 0.14974204 -0.18935512
000070 56 e6 86 be d0 49 8b bc 28 d7 5a 3d 20 82 c5 bd
       -0.26347607 -0.01700297 0.053427845 -0.0964396
000080 6f 6a 44 be 07 b8 ab 3e 74 41 c5 3d ea d9 a9 be
       -0.19181226 0.3353884 0.09631625 -0.33174068
000090 22 65 99 be 35 c1 b2 3e 6e fb 99 be 17 6f b2 3e
       -0.2995997 0.3491303 -0.30074638 0.3485038
0000a0 e0 e4 3a 3c 89 06 7b be a9 31 a7 3e 84 e9 c4 bd
       0.011407107 -0.24514212 0.32655075 -0.09614852
0000b0 bf b3 8b 3e 08 76 dd bd 01 29 a9 3e f8 d9 4d bd
       0.27285573 -0.10813528 0.33039096 -0.0502567
0000c0 22 6c 53 3e
       0.20646718

rnn.bias_ih_l0 f4 [7]
000000 ad 96 ad bf e9 5b 65 bc b9 6a 95 3f 61 d2 24 3f
       -1.3561608 -0.013998964 1.1673194 0.6438351
000010 f3 f8 64 bf 26 b7 20 3e f5 0e 1c bf
       -0.89442366 0.15694866 -0.6096032

rnn.bias_hh_l0 f4 [7]
000000 5b 99 a5 bf b0 aa 19 3f ff f3 aa 3f d7 f0 08 3f
       -1.2937425 0.60026073 1.3355712 0.5349249
000010 49 f9 92 bf 5e 20 9b bd 0f 32 18 bd
       -1.1482326 -0.07574533 -0.037157115

fc.weight f4 [1, 7]
000000 1d 63 ce 3e 9e 7d 50 3f b3 2f 1f bf ab 80 5c bf
       0.40309992 0.81441677 -0.6218216 -0.8613383
000010 cb f2 08 bf d3 68 26 bf ad 75 2b bf
       -0.5349547 -0.650037 -0.66976434
