models_norm/DIA/RNN/ckpt.pth (torch_old, 1523 bytes, 5 tensors)

rnn.weight_ih_l0 f4 [7, 8]
00000000: 2c5a b33e e9bf d9bf 2c73 78be a58d aabe
00000010: 3671 d1be a198 38be fc92 edbe 7201 563f
00000020: 67d5 9ebe b903 1bc0 3320 41c0 6a48 b63f
00000030: dd8b c53f a90b fdbf 678d c13e 42ce d93d
00000040: c676 21bd ed54 84bf 2e08 013f a29d 3dc0
00000050: 1323 44bf 837c e43f 1307 0d40 6132 2440
00000060: 81d8 843f 3a05 b3bd 703a 4bbf 0edd 033e
00000070: c9c3 133f dd83 163f 1266 fd3f eae5 59bf
00000080: dd16 71c0 2223 173f f510 753f 909a a83f
00000090: b93a ba3f 790e 053d 518f 00bf 4d1a 57be
000000a0: 1b8f 273f 0faf 573f db2f 78bf 6b04 543f
000000b0: 7b87 51c0 11b8 b63e 88fc 48be a278 803d
000000c0: dff0 28be 8a21 aebc 3f9a 5b3c 0ca0 9b3f
000000d0: 8828 afbf 8db1 263e 1d80 5abf 0e90 36be
0.35029733 -1.7011691 -0.24262685 -0.3331119 -0.40906686 -0.18026973 -0.46401203 0.83595955
-0.31022188 -2.4221022 -3.0175903 1.4240849 1.5433308 -1.9769183 0.37803194 0.10635044
-0.03941991 -1.0338417 0.50403106 -2.9627461 -0.7661602 1.7850498 2.2035568 2.565575
1.0378572 -0.08741231 -0.79386044 0.12877294 0.5772062 0.5879496 1.9796774 -0.85116446
-3.7670205 0.59037983 0.95729 1.3172169 1.4549171 0.032484505 -0.50218683 -0.21006127
0.65452737 0.84251493 -0.9694802 0.8281924 -3.273894 0.35687307 -0.19627583 0.06273009
-0.16498135 -0.021256227 0.013403474 1.2158217 -1.3684244 0.16278668 -0.85351735 -0.1782839

rnn.weight_hh_l0 f4 [7, 7]
00000000: 8be3 b93e 97c1 84be 4116 7abe 6bbc b73e
00000010: 0f99 a93e f8f3 073d 00d5 b13a 57f7 3cbe
00000020: b936 bebe 9a63 9fbe 58af 58bd a032 8d3c
00000030: ae5a 6cbe 178f ac3e 4072 d53d 5e68 97be
00000040: 341e 873d 23cd 06be 9a52 263e 8304 843e
00000050: 730c 61be 60ba 7fbe c6e6 703e 1471 ec3d
00000060: 69a9 57be cc93 52be 2a6f 673e c0d3 01bc
00000070: 207a 92be 04f7 fabd 8d5c a5be b3ec b9be
00000080: 234a 9ebe 935b 49be c05f 2fbc 8833 b43d
00000090: eb1a 4ebe c662 463e 1a8c 04be 5074 e73d
000000a0: 203d 45bd de2b 64be 5a02 203e a695 053e
000000b0: 005e edbb dddd 94be 858d a53e c268 2f3e
000000c0: 13b0 4ebe
0.36306414 -0.25928947 -0.24422552 0.3588594 0.33124587 0.03319165 0.0013567507 -0.18453728
-0.37151125 -0.31130677 -0.052901596 0.017236054 -0.23081467 0.3370292 0.10422182 -0.29571813
0.06597558 -0.13164191 0.16242447 0.25784692 -0.21977405 -0.2497344 0.23525533 0.115450054
-0.21060719 -0.20564193 0.22601 -0.00792402 -0.286088 -0.12254146 -0.32297173 -0.363134
-0.30915937 -0.19663839 -0.010703981 0.08798891 -0.20127456 0.19373617 -0.1294407 0.11301482
-0.048153996 -0.22282359 0.15625897 0.13045368 -0.0072438717 -0.29075518 0.32334533 0.17129806
-0.20184354

rnn.bias_ih_l0 f4 [7]
00000000: 4f0b 09be fe93 a7bf 423f 7e3f 7a68 1ebe
00000010: 12b7 81be 5bf4 30be 6151 0fbf
-0.1338322 -1.3092039 0.99315274 -0.15469542 -0.25334984 -0.17280714 -0.5598355

rnn.bias_hh_l0 f4 [7]
00000000: d3ba e03e 36ed b6bf 7aa8 6a3f 54c6 6abe
00000010: c49b c4be 3ef0 febe a3f8 e3be
0.43892536 -1.4291141 0.91663325 -0.22927219 -0.3840009 -0.49792665 -0.44525632

fc.weight f4 [1, 7]
00000000: 7f8a 20bf bd59 fc3e 6cf6 183f 8c69 96be
00000010: 6705 d1be bea0 fcbe 68c2 503f
-0.6271133 0.49287215 0.5975101 -0.293774 -0.40824434 -0.49341387 0.8154664
