models_norm/DIA/RNN/ckpt.pth (torch_old, 1523 bytes, 5 tensors)

rnn.weight_ih_l0 f4 [7, 8]
0	0x3ff2a5a7	1.8956803
1	0xbf06fa6d	-0.5272587
2	0x3df8fe04	0.12157825
3	0xbe9cc4d0	-0.30618906
4	0xbddbc353	-0.107306145
5	0xbe7b773e	-0.24557206
6	0x3feccd21	1.85001
7	0xbfdf6ac4	-1.7454457
8	0x3f93e4ee	1.1554239
9	0x40004a5d	2.0045388
10	0x3eb2f8ec	0.34955537
11	0x40186060	2.3808823
12	0x3f37fe21	0.71872145
13	0x3ef5f007	0.4803469
14	0x3e05e562	0.13075784
15	0xbfc66704	-1.5500188
16	0xbe08e1de	-0.13367411
17	0xbf5531ce	-0.8327912
18	0x3e399bbb	0.18125813
19	0xc014f19b	-2.3272464
20	0xbf092222	-0.5356771
21	0x3fa49a78	1.285964
22	0x3fdb6cb6	1.7142551
23	0x4003602f	2.0527456
24	0xbf28200c	-0.656739
25	0x400886c2	2.133225
26	0x3f4176f2	0.7557212
27	0xbf951371	-1.1646558
28	0xbf0b9709	-0.54527336
29	0x3ef340c2	0.47510344
30	0x3dc84290	0.09778321
31	0xbe29f034	-0.16595536
32	0x3f7545db	0.95809716
33	0xbf28e3b5	-0.65972453
34	0x3ebff20d	0.37489358
35	0xbf9010d0	-1.1255131
36	0xbe551608	-0.20809186
37	0x3f3144d1	0.6924563
38	0x3f63b538	0.8894839
39	0xbf8dfdc7	-1.1093072
40	0x3f04ebe6	0.5192245
41	0xbf0729d6	-0.5279821
42	0xbef2d4d4	-0.47428
43	0xbf1c3f81	-0.610344
44	0xbf30bc92	-0.69037735
45	0xbfd8630e	-1.6905229
46	0x3e95a6bd	0.29228774
47	0xbf214959	-0.63002545
48	0x3f49637f	0.78667444
49	0xbf247ec7	-0.64255947
50	0xbf62f1cc	-0.886502
51	0x3f87ae54	1.0600076
52	0xbe96626a	-0.2937196
53	0xbe81a0d9	-0.2531803
54	0x3f5a13eb	0.8518664
55	0x3fb1dc55	1.3895365

rnn.weight_hh_l0 f4 [7, 7]
0	0xbd627b50	-0.05529338
1	0xbec0b2f4	-0.3763653
2	0x3e6c034a	0.2304813
3	0xbd365840	-0.044517756
4	0x3e143a0e	0.14475271
5	0xbb04f000	-0.0020284653
6	0xbe777a9e	-0.24167868
7	0x3e429fd2	0.19006279
8	0xbe144815	-0.14480622
9	0xbe8eee4a	-0.27916175
10	0x3a5ee200	0.00085023046
11	0x3e4954fe	0.19661328
12	0xbeadefd0	-0.33972025
13	0x3eb9453f	0.36185643
14	0xba26b400	-0.00063592196
15	0x3d747430	0.059681118
16	0x3e6eeef6	0.23333344
17	0x3c9badb0	0.01900372
18	0xbd8aff48	-0.06786972
19	0x3ea89997	0.3292968
20	0xbe879e7a	-0.26488096
21	0xbd606398	-0.05478248
22	0x3ea54265	0.32277218
23	0x3e48631a	0.19569054
24	0xbea1f952	-0.3163553
25	0xbdab50a8	-0.08364993
26	0xbe27dc0b	-0.16392533
27	0x3e5aac16	0.21354708
28	0x3eaa51af	0.33265445
29	0xbd7244f0	-0.059147775
30	0xbe41e0a7	-0.18933354
31	0xbe972430	-0.29519796
32	0x3e46687a	0.19375792
33	0x3c40ec00	0.011775017
34	0x3ec00031	0.37500146
35	0xbe77e42a	-0.24208131
36	0xbd3b8168	-0.04577771
37	0xbdd6dad0	-0.10490954
38	0x3d1d1090	0.038345873
39	0x3e659ce6	0.22423133
40	0x3e3b9266	0.18317565
41	0xbd58b200	-0.05290413
42	0xbe98efac	-0.29870355
43	0x3e82a307	0.25515005
44	0xbd0fa6c0	-0.035071135
45	0x3e465582	0.19368556
46	0xbeb320dc	-0.34986007
47	0x3e88d1cd	0.26722565
48	0x3eb3f903	0.35150918

rnn.bias_ih_l0 f4 [7]
0	0x3f13116d	0.57448465
1	0xbf466fe9	-0.7751451
2	0x3f72ceaa	0.94846594
3	0x3fe8749a	1.8160584
4	0xbfe6a829	-1.8020068
5	0x3e7e6890	0.24844575
6	0xbe783c5b	-0.24241774

rnn.bias_hh_l0 f4 [7]
0	0x3eac7ce9	0.3368905
1	0xbf14e0c3	-0.5815546
2	0x3ee89f99	0.45434263
3	0x3fecfbf8	1.8514395
4	0xc0044541	-2.066727
5	0x3f34d0f7	0.70631355
6	0xbf1e0ef9	-0.61741596

fc.weight f4 [1, 7]
0	0xbecdbb1e	-0.40181822
1	0x3f157b2d	0.58391076
2	0x3f2b8f52	0.67015564
3	0xbf8a8976	-1.08232
4	0xbf1c6778	-0.6109538
5	0x3ee79d1b	0.4523705
6	0xbe83c133	-0.25733337
