models_norm/DIA/PSN/ckpt.pth (torch_old, 741 bytes, 2 tensors)

fc.weight f4 [6, 7]
000000 79 f7 17 3f 10 44 53 c0 5d 56 71 be 52 55 31 40
       0.5936199 -3.3010292 -0.23568101 2.7708325
000010 63 54 d8 3e 5b 2f 03 3e ab 45 88 3f 85 8f f3 be
       0.42251882 0.12811033 1.0646261 -0.47570434
000020 39 11 eb bf 80 22 d4 bf b5 5d 0f bf 4f b2 98 3e
       -1.8364631 -1.6573029 -0.5600236 0.2982354
000030 0d 23 36 3f 8a 07 ec 3f 08 1b 89 3f b1 f1 da 3f
       0.71147233 1.8439801 1.0711374 1.7105008
000040 6a f6 09 3f 4d 09 82 3f cd 0a 88 be a3 5b ce bd
       0.53891623 1.0159088 -0.2657074 -0.10076072
000050 c2 43 6b bf de 62 24 bf 54 10 a5 bf ac 48 16 be
       -0.91900265 -0.6421336 -1.2895608 -0.1467616
000060 63 fc 0f 3f 99 d8 42 bf bb 3b 03 bf 57 ba 88 bf
       0.56244487 -0.7611175 -0.51263016 -1.0681866
000070 c3 5a 6f 3e 0e dd f8 3f ad aa 11 bf a4 aa 06 c0
       0.23374467 1.944246 -0.56901056 -2.104165
000080 51 8b 68 bf 77 06 bd 3e f9 5d 08 c0 75 f6 55 3e
       -0.9083758 0.36918995 -2.1307356 0.20894797
000090 ef 97 91 bf 78 09 a1 bf b0 a3 d0 3f d3 e9 8c bf
       -1.1374491 -1.2581015 1.6299953 -1.1008857
0000a0 37 7f 4b bf 87 70 36 bf
       -0.7949099 -0.71265453

fc.bias f4 [6]
000000 06 f0 f1 bf b9 a3 e1 3f f6 35 22 c0 3d 71 3b 40
       -1.8901374 1.7628089 -2.5345435 2.9287865
000010 6f 89 31 40 e2 e9 24 40
       2.7740133 2.576775
