models_norm/DIA/PSN/ckpt.pth (torch_old, 733 bytes, 2 tensors)

fc.weight f4 [6, 7]
00000000: e487 39bf 1890 2040 078e 94bf ed6f 27c0
00000010: a655 86bf a101 08bf 817d b8bf e791 b33e
00000020: dd16 3dbf d9df 4cbf 953f d23e 5811 fbbe
00000030: 981a cb3f 618f 5040 b276 f03f 0871 6040
00000040: 8a41 4240 fd77 833f 965c b73f 88ab bb3f
00000050: 8b35 363f 7a30 51bf ed8b 1ac0 adc8 39bf
00000060: 4413 3340 9847 cc3e 6171 c53b b329 553f
00000070: 3207 ca3e e75d 243f ae69 733e aaa5 51bf
00000080: 41a5 67bf d37e 893f 9d00 863f 9a46 03bf
00000090: 78ee 91bf 5d3f 81bf 48de 11c0 f5fa 81bf
000000a0: 4036 aebe edc9 1bbf
-0.7247298 2.5087948 -1.1605843 -2.6162064 -1.0494888 -0.53127486 -1.4413301 0.35072252
-0.7386301 -0.80029064 0.41064134 -0.4903667 1.5867491 3.2587512 1.8786223 3.5068989
3.0352502 1.0270993 1.432513 1.4661722 0.7117545 -0.81714594 -2.4147904 -0.7257183
2.7980509 0.39898372 0.0060254787 0.8326675 0.39458615 0.64205784 0.23770782 -0.8189341
-0.9048653 1.0741829 1.0468937 -0.51279604 -1.14009 -1.0097462 -2.279192 -1.0154711
-0.34025764 -0.6085499

fc.bias f4 [6]
00000000: 9666 0a3f 3c74 e63f 86ba e1be 2c4b 87c0
00000010: f656 3cc0 da03 c7c0
0.54062784 1.8004222 -0.4408762 -4.2279263 -2.9428077 -6.21922
