models_norm/DIA/PSN/ckpt.pth (torch_old, 733 bytes, 2 tensors)

fc.weight f4 [6, 7]
00000000: c351 25be 5684 b7bf fb85 04c0 5467 2a3e
00000010: a2cd 023e 141c 673d b7aa a13f 5200 0dbf
00000020: d0aa 393f 4a3d f93e 8128 84bf 4222 d7be
00000030: ca03 2bbf 4cc0 77bf fa02 123f b689 b6be
00000040: 2618 a5be 42c9 ae3f 8ca4 fc3e b1ee 263f
00000050: 9eb1 463f 195b 13bf a3d4 39bf bc5f 48bf
00000060: 278f 40bf e919 b1be 05fc 7ebe 523f 9e3e
00000070: 4b42 95be 1727 1dbf b306 a1bf 3057 413f
00000080: 367d 09bf c3ba 643e 9808 8dbe 83ee da3e
00000090: 0114 52bf dce3 aa3d c542 803e 4a85 f23e
000000a0: 27a7 153e 1a0e 453f
-0.16144471 -1.4337261 -2.0706775 0.16640979 0.12773755 0.05642326 1.2630223 -0.55078614
0.72526264 0.48679572 -1.0324861 -0.42018324 -0.66802657 -0.96777797 0.5703579 -0.3565194
-0.32244986 1.3655169 0.4934429 0.65207964 0.7761477 -0.5756088 -0.7259008 -0.7827108
-0.75218433 -0.3459008 -0.24900825 0.30907685 -0.2915214 -0.6138777 -1.258017 0.7552366
-0.5370668 0.22336869 -0.2754562 0.42760095 -0.82061774 0.08344242 0.2505094 0.47367316
0.14614545 0.7697464

fc.bias f4 [6]
00000000: e40b fd3f 0d66 1240 6ea3 2dc0 aa09 2340
00000010: 84dc f43f 3b99 cfbf
1.9769254 2.2874787 -2.7131 2.5474648 1.9129796 -1.6218637
