models_norm/DIA/PSN/ckpt.pth (torch_old, 741 bytes, 2 tensors)

fc.weight f4 [6, 7]
0	0x3f093a5d	0.5360468
1	0xbee771e1	-0.4520407
2	0xbe481fdf	-0.19543408
3	0x3f6344d2	0.88776886
4	0x3f00d039	0.5031772
5	0x3ee09489	0.43863323
6	0x3f3c38f5	0.7352441
7	0xbeffccfd	-0.4996108
8	0x3de59581	0.11210156
9	0xbe9da63c	-0.3079089
10	0xbef11209	-0.47084072
11	0xbeee34d9	-0.46524695
12	0xbe6e1613	-0.23250608
13	0xbf0c4942	-0.5479928
14	0x3df0cb5c	0.11757538
15	0x3fb76f93	1.4330925
16	0x4004bfa7	2.0741975
17	0x3d91821e	0.07104896
18	0xbe16d843	-0.14730935
19	0xbd8c80fe	-0.06860541
20	0xbfb392c4	-1.4029164
21	0x3f0310da	0.5119759
22	0xbf2dac20	-0.67840767
23	0xbe3c93ca	-0.18415752
24	0x3f199b90	0.60002995
25	0x3eeedf06	0.46654528
26	0x3ed17963	0.40912923
27	0x3f67fe5d	0.906225
28	0xbf0e1f04	-0.55516076
29	0xbe82396c	-0.25434434
30	0xbee85c58	-0.45382953
31	0xbf261cab	-0.64887494
32	0xbecbaf68	-0.39782262
33	0xbe97c0d7	-0.29639313
34	0xbe4134ae	-0.18867752
35	0x3efc7093	0.49304637
36	0x3f047036	0.5173372
37	0x3f84a5c4	1.0363088
38	0xbe9f6325	-0.3113033
39	0x3ed0b141	0.40760234
40	0x3d86df40	0.0658555
41	0x3e7da849	0.24771227

fc.bias f4 [6]
0	0xc0113478	-2.2688274
1	0x400d3e1f	2.2069166
2	0xc00108fd	-2.0161736
3	0xc003176c	-2.0483046
4	0x4019bf5b	2.4023044
5	0xc00a9015	-2.165044
