models/SPY/PSN/ckpt.pth (torch_old, 741 bytes, 2 tensors)

fc.weight f4 [5, 9]
000000 e6 5a d0 3d 64 cc 8d be c2 38 7f 3e a9 8c 88 be
       0.101735875 -0.27695 0.24923995 -0.26669815
000010 60 1b d1 3d 73 ed 3b 3e f4 d9 13 3e ff 49 76 3e
       0.102102995 0.18352298 0.14438611 0.24051665
000020 85 16 18 3b cc ce 9d be 40 c3 04 be ce 73 2c 3d
       0.0023206782 -0.30821836 -0.12965107 0.042102627
000030 1f 0d 0c 3e 70 7a 91 be 16 6d a8 3e 07 5a 8a be
       0.1367688 -0.28413725 0.32895726 -0.2702181
000040 66 d8 01 3d 3a 5e 75 3e 9b 73 35 be d8 00 0c be
       0.031700514 0.23961726 -0.17719881 -0.13672197
000050 7c 0c 85 3d d1 95 31 3e f7 29 23 3d fb 2f 74 3e
       0.06496522 0.17342307 0.039834943 0.23846428
000060 cc 0a 42 3e 9e ec 2f be 4a 43 3c 3e bd d8 8d 3e
       0.18949431 -0.17180106 0.18385044 0.2770442
000070 0a 52 9c bd 8c b7 c2 3d bd 74 74 3e 97 f8 2a 3e
       -0.07632835 0.09507665 0.23872657 0.16696392
000080 c8 57 9e be cb e7 8a 3e 4f 76 8b 3e 6b 0d c0 bc
       -0.30926347 0.2712997 0.272387 -0.023443898
000090 2c f4 a2 be 8b bd 8c 3e b0 ee a3 bd 54 25 f3 bd
       -0.31826913 0.2748836 -0.080045104 -0.11872354
0000a0 58 86 d8 3d b2 6b 40 be c0 a6 0a be c7 ac 2b 3e
       0.10572499 -0.18791083 -0.13540173 0.16765128
0000b0 02 d8 b7 3d
       0.08976747

fc.bias f4 [5]
000000 e1 2f 91 bf e7 02 8e bf 4f df 8c bf 94 df d5 bf
       -1.1342736 -1.1094636 -1.1005648 -1.6708856
000010 e2 27 d6 bf
       -1.6730921
