models_norm/SPY/RNN/ckpt.pth (torch_old, 1451 bytes, 5 tensors)

rnn.weight_ih_l0 f4 [6, 9]
00000000: 090e 87bf 3d26 f63e 09a1 423f 9211 da3e
00000010: e367 1abf c489 55bf d8fd 0140 e6c4 5dbe
00000020: 2a59 fa3f 5abd c7bd a11c de3f cadb 863f
00000030: 2686 993f d0ab 1ebf 9a65 0f3e dfdf 63be
00000040: 6d21 5e3f 4cc2 86bf 1c60 b13e efe1 703e
00000050: 465d 95bd 6222 49bd 6a43 48be 09c9 a23d
00000060: 6973 6cbf 2146 3a3d 7b8b e13d 7ea3 03c0
00000070: deae 6c3f d77c 923f 22e2 093f 29b6 36bf
00000080: 7a6a 75bf 689d 2840 a7f4 a93e 0eb2 0940
00000090: e343 8dbf 7935 87bf 91f7 98bf 6857 20c0
000000a0: 0309 3a3f bdd4 463f c4fb a53d 9a3b 78be
000000b0: 610f 3bbf 6b1c 813f a2a6 e83f bbb4 b53f
000000c0: f07d 2a40 1af5 6abf 9d01 83bf 351a 1b3f
000000d0: 6b10 413f 936b b6be
-1.0551158 0.48076048 0.7602697 0.4259153 -0.6031477 -0.8341334 2.0311184 -0.21657142
1.9558461 -0.09752913 1.7352487 1.0535824 1.1994064 -0.61980915 0.14003602 -0.22253369
0.86769754 -1.0528045 0.34643638 0.23523687 -0.07293181 -0.049105056 -0.19556966 0.07948501
-0.923636 0.045477036 0.11012932 -2.0568538 0.92454326 1.1444348 0.53860676 -0.71371704
-0.95865595 2.6346073 0.33194467 2.1514926 -1.1036342 -1.0563194 -1.1950551 -2.5053349
0.7267 0.7766836 0.08104661 -0.24241486 -0.7307034 1.0086797 1.8175852 1.419578
2.6639366 -0.91780245 -1.0234867 0.60586864 0.75415677 -0.35628948

rnn.weight_hh_l0 f4 [6, 6]
00000000: 543b cfbd 6083 703c 20c8 d2bd 3dd4 c8be
00000010: 34f1 8a3e b0a5 dd3c 18e6 5c3e 102b 50bd
00000020: 6051 52bc 1ce4 92be f6f7 bc3e 8799 82be
00000030: 0828 59bd 6691 a1be 20ff e13d 704f 513e
00000040: 0ce7 a93e 20c2 383d e8b3 1f3e 3cf3 253e
00000050: ca81 ad3e 3c1d afbd 9048 6cbd 6036 9f3c
00000060: 3429 2f3e 6c05 37be 7838 5e3d 3ca4 923e
00000070: 68ca c53e 3f7f 76be 1eaa 80be f806 a23e
00000080: 1824 8ebd e018 cb3d 379a cebe c089 533e
-0.10118738 0.01467976 -0.10292077 -0.39224425 0.27137148 0.027056545 0.21572149 -0.050822318
-0.012836784 -0.2868966 0.3690793 -0.25507757 -0.053016692 -0.31556243 0.11034989 0.20440459
0.33184087 0.045107007 0.15595973 0.16206068 0.33888084 -0.08550498 -0.05768639 0.019435108
0.17105561 -0.17873162 0.05425307 0.28640926 0.38630986 -0.24071978 -0.2512979 0.31645942
-0.06940478 0.09916854 -0.40352032 0.20658016

rnn.bias_ih_l0 f4 [6]
00000000: 2c4d 8abe 5c77 053f e4f1 95be c359 bdbe
00000010: 174d febf 6ca2 a93f
-0.27012002 0.5213525 -0.2928611 -0.36982545 -1.9867276 1.3252692

rnn.bias_hh_l0 f4 [6]
00000000: 515d e9be b4e2 183f c013 80be 433b b8be
00000010: a81d cabf a251 ff3f
-0.45579007 0.5972092 -0.25015068 -0.35982713 -1.57903 1.9946787

fc.weight f4 [1, 6]
00000000: 7107 83bf 7bb2 17bf 77e0 173f 3c29 8e3f
00000010: 893c ac3f 1110 a93f
-1.0236646 -0.59256715 0.5932688 1.1106334 1.3455974 1.3208028
