models_norm/SPY/RNN/ckpt.pth (torch_old, 1451 bytes, 5 tensors)

rnn.weight_ih_l0 f4 [6, 9]
0	0x3efb4839	0.4907854
1	0x3f0f9bde	0.5609721
2	0xbf9a95e7	-1.2076997
3	0x401abc89	2.4177573
4	0xbfceff17	-1.6171597
5	0x3f1d4e69	0.6144777
6	0xbfbbc773	-1.4670242
7	0xbfe302f1	-1.7735273
8	0x3f195255	0.59891254
9	0x3fe4615c	1.7842212
10	0xc031ff9d	-2.7812264
11	0xbf14ee92	-0.5817653
12	0x3f17d81f	0.5931415
13	0x3e97adb4	0.29624712
14	0xbf0da380	-0.55327606
15	0xbf514d1e	-0.81758296
16	0xbf955727	-1.1667222
17	0xbe0e83c9	-0.1391746
18	0x3eb83bb6	0.35983056
19	0x3e9da206	0.30787677
20	0x3ec538f8	0.38520026
21	0x3f6bb241	0.9206887
22	0xbea5c0e6	-0.32373732
23	0x3adcd7ae	0.0016848946
24	0xbcc1eead	-0.02367338
25	0xbdad8fc3	-0.08474686
26	0x3f43e6f9	0.7652431
27	0xbce52356	-0.027970951
28	0x3f77292b	0.9654719
29	0x3fc3a379	1.5284263
30	0xbfdd2d7c	-1.7279506
31	0x3e2c4e87	0.16826831
32	0x3f9403fb	1.1563715
33	0x3fd44070	1.6582165
34	0x3f467d88	0.77535295
35	0xbee87d70	-0.454082
36	0x3d332cf8	0.043744057
37	0x3ee307d3	0.44341907
38	0xbfa0ba30	-1.255682
39	0x3fbbc738	1.4670172
40	0xbfa6a021	-1.3017617
41	0x3d87f471	0.066384204
42	0xbfc77fbc	-1.5585856
43	0xbf7ed107	-0.995377
44	0x3ef00eea	0.4688638
45	0x3ea512ce	0.3224091
46	0xbfe2c481	-1.7716218
47	0xbf88bc93	-1.0682548
48	0xbf46f475	-0.7771676
49	0xbe517184	-0.20453459
50	0xbec18aef	-0.3780131
51	0xbfa93890	-1.3220387
52	0xbe87cc56	-0.26523083
53	0xbfab550f	-1.3385333

rnn.weight_hh_l0 f4 [6, 6]
0	0x3dae4850	0.08509886
1	0xbe67d14c	-0.22638434
2	0xbdef5648	-0.11686379
3	0x3e9f74da	0.31143838
4	0x3e488e00	0.19585419
5	0xbd6b2370	-0.057406843
6	0xbeb2a54a	-0.3489173
7	0xbe7a348a	-0.24434105
8	0x3ec6237c	0.38698947
9	0x3e03933c	0.12849134
10	0xbe9f1351	-0.31069425
11	0x3e3d87dc	0.18508857
12	0x3e81afaa	0.25329334
13	0xbec6453a	-0.3872469
14	0xbeadfeb6	-0.33983392
15	0xbe78f860	-0.24313498
16	0x3e3cd24c	0.18439597
17	0x3e06bc10	0.13157678
18	0x39762000	0.00023472309
19	0x3d242d40	0.040082216
20	0xbe318b51	-0.17338301
21	0xbdcdde28	-0.100521386
22	0xbe9c4aee	-0.30525917
23	0x3da655c0	0.08121824
24	0xbe28b166	-0.16473922
25	0x3c957ae0	0.018247068
26	0x3ca850e0	0.020546377
27	0x3d0c9610	0.0343228
28	0xbd27f670	-0.041006505
29	0x3ec867ca	0.39141685
30	0x3e905596	0.28190297
31	0x3e0b4e9c	0.13604206
32	0xbe6bcd96	-0.23027644
33	0xbd4027a0	-0.04691279
34	0xbe45e04b	-0.19323842
35	0x3ecbc842	0.39801222

rnn.bias_ih_l0 f4 [6]
0	0xbf8ffb9b	-1.1248659
1	0xbf23a096	-0.6391691
2	0x3f83c275	1.0293719
3	0x3f9cde10	1.2255268
4	0xbf46975d	-0.7757471
5	0xbf562013	-0.8364269

rnn.bias_hh_l0 f4 [6]
0	0xbf8b3e67	-1.0878419
1	0xbe8b3b66	-0.27193755
2	0x3f881d97	1.063403
3	0x3fa22004	1.266602
4	0xbf8b1271	-1.0865003
5	0xbf027d61	-0.50972563

fc.weight f4 [1, 6]
0	0xbfad3498	-1.3531675
1	0x3f024658	0.50888586
2	0xbf7d5399	-0.98955685
3	0x3f10844d	0.56451875
4	0x3fd7aab1	1.6848966
5	0xbf19236d	-0.5981968
