models_norm/SPY/RNN/ckpt.pth (torch_old, 1475 bytes, 5 tensors)

rnn.weight_ih_l0 f4 [6, 9]
0	0xbfae813e	-1.3633192
1	0xbfd0efd1	-1.6323186
2	0x3fb862d2	1.4405158
3	0xbe549c99	-0.20762862
4	0x3f8b6410	1.0889912
5	0xbf198148	-0.5996289
6	0x3f1a8efa	0.60374415
7	0x40042121	2.064522
8	0x3f88995c	1.0671802
9	0xbe0e15ae	-0.13875458
10	0xc006d2e4	-2.1066217
11	0xbe300dab	-0.17192714
12	0xc001d27f	-2.0284727
13	0x3de91c94	0.11382404
14	0xbf9766f4	-1.1828294
15	0x3fb8c330	1.4434566
16	0xc0301a89	-2.7516196
17	0xc0016406	-2.02173
18	0xbf44ed9c	-0.76925063
19	0x3f484576	0.7823099
20	0xbfbee409	-1.4913341
21	0x3ffb8b7e	1.9651945
22	0xbea92889	-0.33038738
23	0xbd942025	-0.072326936
24	0x409d35c9	4.9128156
25	0x3f75d4f2	0.96028054
26	0x3fbdf93c	1.4841685
27	0x3eace3eb	0.33767638
28	0x3e444139	0.19165505
29	0x3f86de57	1.0536603
30	0xbfe444f8	-1.7833548
31	0x3e2f577b	0.17123215
32	0x3e18f0ad	0.1493556
33	0xc08156f6	-4.0418653
34	0xbf379477	-0.71710914
35	0xbf906ebd	-1.1283795
36	0xbf004e3b	-0.5011937
37	0x3e7572dc	0.23969597
38	0xbfab9da2	-1.3407481
39	0x3f27ad8d	0.6549919
40	0xbfb96232	-1.4483092
41	0xbdfdc5ea	-0.12391265
42	0xbfd894c6	-1.6920402
43	0x3f8a2031	1.0791074
44	0xbfb81ac2	-1.4383166
45	0xbfb49e23	-1.411076
46	0xbff4997a	-1.9109337
47	0x3f110907	0.566544
48	0xbefcf515	-0.49405733
49	0xbf1ff160	-0.62477684
50	0xbf71e33f	-0.94487375
51	0xbd708863	-0.05872382
52	0x3efeef72	0.49792057
53	0xbfb33702	-1.4001162

rnn.weight_hh_l0 f4 [6, 6]
0	0x3dccbd20	0.0999701
1	0x3dffda58	0.12492818
2	0x3e4381f0	0.19092536
3	0x3e87c4b0	0.26517248
4	0xbd7f9500	-0.062397957
5	0xbec13d25	-0.37741962
6	0x3e830ddc	0.2559651
7	0x3d8bf830	0.068344474
8	0xbe8a7cb6	-0.27048272
9	0xbeb2402e	-0.3481459
10	0xbe872856	-0.2639796
11	0xbcc8fbc0	-0.024534106
12	0xbdffb7dc	-0.1248624
13	0x3e97c74c	0.2964424
14	0x3e98751c	0.29776847
15	0xbe464eb6	-0.19365963
16	0x3dce78b0	0.10081613
17	0x3c7eb6a0	0.015546471
18	0xbdb0ccbc	-0.086328
19	0x3e9d7e40	0.30760384
20	0x3e57bdf0	0.21068549
21	0x3ebd0c60	0.36923504
22	0x3eb61100	0.35559845
23	0x3e37a0e8	0.17932475
24	0xbe071be8	-0.13194239
25	0x3ddb9ab8	0.1072287
26	0x3cf3dd90	0.029768735
27	0x3ea786ea	0.3272012
28	0x3e4c7960	0.19968176
29	0xbe7eaf3b	-0.24871533
30	0x3dda2c58	0.10652989
31	0xbd1246d8	-0.035712093
32	0xbd705230	-0.05867213
33	0xbce724d0	-0.028215796
34	0x3e57ea8c	0.21085566
35	0x3d12cac0	0.03583789

rnn.bias_ih_l0 f4 [6]
0	0x3f0045a2	0.5010625
1	0xbf1884e3	-0.5957777
2	0x40030703	2.047303
3	0xbffd1b91	-1.9774038
4	0x3d703d9f	0.058652516
5	0xbeb3d80e	-0.35125774

rnn.bias_hh_l0 f4 [6]
0	0x3e815382	0.25259024
1	0xbf448b65	-0.767752
2	0x4019e21b	2.4044254
3	0xbfcf983f	-1.6218337
4	0xbe6e1f17	-0.23254047
5	0xbea74bc0	-0.3267498

fc.weight f4 [1, 6]
0	0x3f126057	0.5717825
1	0x3f2bfdf6	0.6718439
2	0x3fedb3b4	1.8570466
3	0x3ff48007	1.9101571
4	0x3f09dc47	0.5385174
5	0xbf24889e	-0.6427096
