models/DIA/PSN/ckpt.pth (torch_old, 733 bytes, 2 tensors)

fc.weight f4 [6, 7]
00000000: cacb 003e fabe 973e 5a31 aabe e723 403e
00000010: 1b72 a4be 3366 913e 279e 85be 9349 78be
00000020: c3a8 97be ada2 8fbe efd3 3cbe 33b7 b03d
00000030: 74df 5a3e c12c 5ebe 1cd3 0d3e 889f 923e
00000040: 2fb4 ae3e ee9f 96be ba0a 1fbe bdc3 be3e
00000050: bdeb 493e b557 efbd 90d4 0d3d d020 a03c
00000060: b790 31be 4094 58be c407 403e da45 48bc
00000070: c87d 153e 76b0 563e 8c19 debd b695 65be
00000080: d6d5 533d 46b0 40be c06f bdbc bf9a ba3e
00000090: 08f2 03bd 8b3c 603e afda a53d 8901 b43e
000000a0: 4289 87be 8624 28bd
0.1257774 0.2963789 -0.33240777 0.18763696 -0.32118306 0.28398284 -0.26097223 -0.24246816
-0.29620942 -0.280538 -0.18440221 0.086286925 0.21374303 -0.2169676 0.13850063 0.28637338
0.34121844 -0.29418892 -0.15531436 0.3725871 0.19718833 -0.11686651 0.034626544 0.019546896
-0.1734036 -0.21150303 0.18752962 -0.012223685 0.14598763 0.20965752 -0.108447164 -0.22420391
0.0517176 -0.18817243 -0.023124576 0.36446187 -0.03221324 0.21898095 0.08098351 0.3515742
-0.26471907 -0.041050456

fc.bias f4 [6]
00000000: 8006 88bf b0d3 60bf 49b7 a9bf 93af 97bf
00000010: 4361 8bbf d613 8ebf
-1.0626984 -0.8782301 -1.3259059 -1.1850456 -1.0889057 -1.1099803
